encoder_state_dict.pth (torch, 10706 bytes, 10 tensors)

conv_layers.0.gatlayer.attn_l f4 [1, 2, 30]
00000000: 41dd 8ebd 1342 22be f915 dcbd 341c 1ebf
00000010: 17bc f73c 270d ec3d 4504 a6be f509 52be
00000020: f7f1 853b 8d4d 563e 6409 063e 6b2c 7c3d
00000030: cc3c d13d f4e0 84bd c2b2 24be 211e 8c3b
00000040: 4f0a 87be c220 e2bd a5e2 2d3d a22c 84bd
00000050: f895 1ebe 145c f93b 1c51 eebc 4a48 e73e
00000060: 849b 043d 1de2 e1bd 4bb2 513d b7f0 9dbc
00000070: 335b 583e b6f7 fd3c 0b91 d4be 54d2 52bd
00000080: 6188 133f ba2f f33d 76b8 423e 4dbf 1bbd
00000090: 6296 1b3e 6052 afbe 9eaf c2bc f16f 8fbd
000000a0: 447b 373e cbeb 97be 0aa6 cc3e 1e86 073e
000000b0: 0393 90bd db84 fabd bfc2 943d fcec a4bd
000000c0: d9ce 79be a911 e93e e458 4bbe 5c5e 1a3e
000000d0: bcb6 ad3d 3712 87be 692e 3e3e 6761 6ebe
000000e0: 1c95 42bd 7e78 063e d071 6dbe f6a8 c93d
-0.069757946 -0.15845518 -0.107463785 -0.61761785 0.030241055 0.11525946 -0.32425132 -0.20511611
0.0040876823 0.20928021 0.1308952 0.061565798 0.10216674 -0.06488219 -0.16083816 0.0042760526
-0.26375052 -0.11041404 0.042452473 -0.064538255 -0.15486896 0.0076098535 -0.02909141 0.4517234
0.032374874 -0.11029456 0.051195424 -0.01927982 0.2112854 0.031001907 -0.4151691 -0.051470116
0.5762997 0.118743375 0.19015679 -0.038024236 0.15194085 -0.34242535 -0.023765381 -0.07003773
0.17918116 -0.29672083 0.39970428 0.13234755 -0.0705929 -0.122323714 0.07263707 -0.08053014
-0.24395312 0.45521286 -0.19858128 0.15075058 0.084821194 -0.26381084 0.18572392 -0.23279344
-0.047505483 0.13131902 -0.23187947 0.0984668

conv_layers.0.gatlayer.attn_r f4 [1, 2, 30]
00000000: 927c d8be 92be 5b3e bcf7 1c3e e86f edbc
00000010: e5cf 62bc bc68 8e3d 38e5 47bd 451d 1fbe
00000020: 76b9 0fbe 0f05 a03e 3817 813d 11ac a43c
00000030: 5bab 823e 7c44 cbbe fd3d 193e 60b9 2fbe
00000040: d6b6 63be 86d8 07be 5f7d a63d e1e6 023e
00000050: 396c edbb de26 0a3e b1e1 9abe 51d3 d3bd
00000060: b03b bcbd 1f77 80be 3941 253e 09d9 823e
00000070: d6dd edbe d5a2 85bd 4bbd dc3d 3184 243e
00000080: a7a2 c7bd 4c3b fcbd d54f 65be 271a 1c3c
00000090: 4e49 ecbd 2ce3 36be a102 6abe de9e 87bd
000000a0: 5e9b 86be af0f cf3c 0715 5cbe 5007 d23d
000000b0: c2d7 433e 63c4 cc3d 25a4 4ebe bb2a ebbd
000000c0: 409b 6bbe e97e d23d d337 d0bd 8eaa 77bc
000000d0: 99a4 c6be cbc6 aebd 0bf4 673d 7e93 9a3e
000000e0: 8863 bdbe c14c 963d 803f 30be f742 60be
-0.4228254 0.21459416 0.15328878 -0.028984025 -0.013843511 0.0695357 -0.048802584 -0.15538509
-0.14035591 0.3125386 0.06303257 0.020101579 0.2552136 -0.39700687 0.14965053 -0.17160559
-0.22237715 -0.13266191 0.081293814 0.12783386 -0.007245567 0.13491389 -0.30250314 -0.1034304
-0.09191072 -0.25090882 0.16138162 0.2555621 -0.4645831 -0.06525198 0.10778292 0.16066052
-0.0974782 -0.123159975 -0.22393735 0.00952772 -0.11537419 -0.17860097 -0.22852565 -0.066220984
-0.2629041 0.025276033 -0.21492396 0.10255301 0.19125274 0.09998395 -0.20179804 -0.114827596
-0.23008442 0.102781124 -0.101668976 -0.015116347 -0.38797453 -0.085340105 0.056629222 0.30190653
-0.3699 0.073388584 -0.17211723 -0.21900545

conv_layers.0.gatlayer.bias f4 [60]
00000000: 0000 0000 0000 0000 0000 0000 0000 0000
00000010: 0000 0000 0000 0000 0000 0000 0000 0000
00000020: 0000 0000 0000 0000 0000 0000 0000 0000
00000030: 0000 0000 0000 0000 0000 0000 0000 0000
00000040: 0000 0000 0000 0000 0000 0000 0000 0000
00000050: 0000 0000 0000 0000 0000 0000 0000 0000
00000060: 0000 0000 0000 0000 0000 0000 0000 0000
00000070: 0000 0000 0000 0000 0000 0000 0000 0000
00000080: 0000 0000 0000 0000 0000 0000 0000 0000
00000090: 0000 0000 0000 0000 0000 0000 0000 0000
000000a0: 0000 0000 0000 0000 0000 0000 0000 0000
000000b0: 0000 0000 0000 0000 0000 0000 0000 0000
000000c0: 0000 0000 0000 0000 0000 0000 0000 0000
000000d0: 0000 0000 0000 0000 0000 0000 0000 0000
000000e0: 0000 0000 0000 0000 0000 0000 0000 0000
0.0 0.0 0.0 0.0 0.0 0.0 0.0 0.0
0.0 0.0 0.0 0.0 0.0 0.0 0.0 0.0
0.0 0.0 0.0 0.0 0.0 0.0 0.0 0.0
0.0 0.0 0.0 0.0 0.0 0.0 0.0 0.0
0.0 0.0 0.0 0.0 0.0 0.0 0.0 0.0
0.0 0.0 0.0 0.0 0.0 0.0 0.0 0.0
0.0 0.0 0.0 0.0 0.0 0.0 0.0 0.0
0.0 0.0 0.0 0.0

conv_layers.0.gatlayer.fc.weight f4 [60, 2]
00000000: 7c7b f3bd 1098 03bf a719 173d 46b0 e63e
00000010: 5b32 31bd f724 1fbe e313 bdbe d6b7 2c3e
00000020: 5a55 14be 0473 a43e ca26 8abe f894 1c3d
00000030: bd77 85be 29fe 843e 7430 dbbe 9e81 ec3e
00000040: 37f1 11be 6179 6c3e bea3 8fbe 767e ab3e
00000050: 0110 6ebd 10e5 1ebf b159 983e 4438 cfbe
00000060: d340 2a3e 8950 373e a4b1 603e 9715 8dbe
00000070: 0e7f 62be ecbd 903e 5d54 753d 5baa 5abe
00000080: 5d8d cd3d bfe8 183f 20a1 0f3e 07bc 0c3f
00000090: 2c18 f93d 9416 90bd 1ed3 5cbe 62bc 023f
000000a0: 68b9 453e bb8f 8fbd b30a d43e 8814 26be
000000b0: 02f7 313e 137d 3fbe f551 103d aeec 9d3e
000000c0: e5d9 bfbd e4ac 18bd 4436 053f 1c02 4f3e
000000d0: e6db 703e 1a63 fb3d 1c1a bebd f2c2 673d
000000e0: 13d8 883d a092 2d3e 7477 8d3d cb5d aabe
000000f0: c6f2 0abe 8c8f 353d d026 bb3d 528a debc
00000100: 454e a73c 2b72 7bbe fd08 5c3d ed3b 6c3e
00000110: df4c 67bd 0e83 4f3e ea51 ac3e 996f b93e
00000120: d06f 00bd fa8c 993e 55ff e63d 526a f63e
00000130: 2a17 ae3e 0fff bf3e 714a 85bc f7e8 ac3e
00000140: 6b44 68be bfa2 6ebe 322f 83be 0dd1 66be
00000150: 7b64 0b3f 27c9 4d3d 358b 3cbe d6da f0bd
00000160: 6856 1b3f c205 ec3d f095 b2be 555b 87bd
00000170: dae0 153d 65d3 5cbf 4016 c13d 0443 90be
00000180: 7f8e cabd a46a a2be a531 a03d 0abb ddbc
00000190: 54b6 e1bc 646f 923e ae17 813e e56b eebe
000001a0: f519 3c3c b721 ab3d 4615 28be 467d 0d3d
000001b0: e62a 1cbe c59a a13e 22e5 bc3e 1d87 c3bc
000001c0: 73d7 eb3b cd77 903d 7a87 b93e 59eb 293e
000001d0: b62d 173e c302 863e c07e 0e3d 3136 e5bd
-0.11888787 -0.51403904 0.0368897 0.4505636 -0.043260913 -0.15541445 -0.36929235 0.16867003
-0.14485684 0.32119 -0.2698272 0.038228005 -0.26067916 0.2597516 -0.42810404 0.4619264
-0.14252172 0.23093177 -0.28054613 0.3349492 -0.05812073 -0.6206827 0.2975593 -0.40472615
0.16626291 0.17901815 0.21942765 -0.27555534 -0.2211878 0.282699 0.05989491 -0.21354048
0.100367285 0.5973014 0.14026308 0.54974407 0.121628135 -0.070355564 -0.2156491 0.510687
0.19309008 -0.07009836 0.41414413 -0.1621877 0.17379382 -0.18700056 0.03523441 0.30844635
-0.09367732 -0.037274256 0.5203593 0.20215648 0.23521385 0.122747615 -0.09282324 0.0565824
0.06681838 0.16950464 0.069075495 -0.33274683 -0.13569173 0.04432635 0.09138262 -0.027165566
0.020423064 -0.2455527 0.05371951 0.23069735 -0.056469794 0.20264837 0.33656245 0.36217955
-0.031356633 0.2999037 0.112791695 0.4812799 0.34002048 0.37499282 -0.016270848 0.33771488
-0.2268235 -0.2330427 -0.25621945 -0.22540684 0.54450196 0.050240662 -0.18412478 -0.1176049
0.6067872 0.11524536 -0.34880018 -0.06609217 0.03659139 -0.8626006 0.09428072 -0.2817613
-0.0989046 -0.31721985 0.07821969 -0.027066726 -0.027552761 0.2860061 0.2521338 -0.46566692
0.011480798 0.0835604 -0.16414365 0.0345433 -0.1525074 0.31563392 0.36893564 -0.023868138
0.0071973144 0.070541 0.36236173 0.16593684 0.14763531 0.26173982 0.034788847 -0.11191977

conv_layers.0.gate_fn.weight f4 [2, 68]
00000000: ce30 ad3b 11b4 5ebc 6e05 863d 3dca 34bd
00000010: a482 65bd 629d 27bc ab61 6ebd f7f9 e13d
00000020: 2b04 33bd dc6c b6bd 9628 263d dba4 8c3d
00000030: 9308 6b3c 1643 b83d 3387 81bd beba d23c
00000040: 291d 423d 74a0 f53d 7bfb 2e3e aa1f 423d
00000050: 2e44 fe3d b8b8 63bd a9ca 5dbd 1d0d e2bd
00000060: 0c1b ea3d aa34 aabd 3cbc 39bd db16 e83c
00000070: f7f7 ffbb 37bd 12bd d53a 29bd 4df5 f83d
00000080: 3c8b a6bd a7c1 ea3d 7cdd 3f3d 8d5d 853e
00000090: 07a5 fbbd d656 61bd a339 203d 71ee c73d
000000a0: 1d84 6f3d 2502 03be 249e d53b f6d7 7e3d
000000b0: 8f02 32bd 8ca0 663c 1d3e f2bd 9062 b1bd
000000c0: 0bed 703d 26e5 f1bd c26f f4bd 11b4 83bd
000000d0: d46f 6e3d fae1 d63c aa28 bd3d b863 3c3c
000000e0: 1958 ebbd 1a01 90bd 092d aa3d 09b3 e43d
000000f0: f625 b3bd 15cd a23c fc72 e53c 5e3a 07bf
00000100: 2c7b b93d 883a ea3c 74f9 1dbb 54d5 ed3a
00000110: 7651 f43d 99ab 2ebd b9ec f4bd 77b8 7b3d
00000120: da41 b1bd 6652 febc 81d4 11be 9e19 8a3c
00000130: dda4 fcbd be3e f83c 33f1 063e b243 333d
00000140: 25b7 063b cd21 44bd 95d9 433d 9f67 7bbd
00000150: 14b4 6e3c fb14 563c c820 93bd 8ac5 a0bd
00000160: 665f 1abe e09c 1abe 1b81 bb3b 2689 a03d
00000170: da2a d1bc 5742 08be 94fd 2ebc fbbe 5fbd
00000180: a9ed acbd 74b1 dc3c 68c9 ba3b c792 5e3d
00000190: 9d99 583d 17a2 f03c 3403 d6bd 96aa 40bd
000001a0: 7d6e edbd 5ac7 313c ba24 9a3d 580d 5dbc
000001b0: 842e b03d 045d c6bd 67d9 9bbc fe4a bbbd
000001c0: b2f4 3a3d 05cf fe3d d87a 5e3d 1948 6c3c
000001d0: 6b09 5bbc ced6 aa3d 6856 c23d 93d8 f3bc
000001e0: 63b2 6a3c 1624 c53d e137 5cbd 9394 103c
000001f0: 1391 b73d ce6a 95bd 9ae8 a6bd 3c7d a73d
00000200: 269b e93d 5a53 42ba 49e1 373c 31ac 4f3e
00000210: 16ae 53bd 9428 8f3d 83c0 ccbd b9cc 113e
0.005285359 -0.013592736 0.065440044 -0.044138182 -0.05603279 -0.010230394 -0.058198612 0.11034005
-0.043705147 -0.08907482 0.04056605 0.06867381 0.014345306 0.089971706 -0.06324615 0.025723811
0.04739109 0.11993495 0.1708812 0.04739348 0.12415348 -0.055596083 -0.05414835 -0.110376574
0.1143094 -0.08310826 -0.04534553 0.02833121 -0.007811542 -0.03582498 -0.041315872 0.121561624
-0.081320256 0.114627175 0.046842083 0.26047936 -0.12287336 -0.055014454 0.039117467 0.09762276
0.058475602 -0.12793787 0.006519096 0.062217675 -0.04345947 0.014076363 -0.118282534 -0.086613774
0.05881981 -0.11811285 -0.119353786 -0.06430829 0.058212116 0.0262308 0.09236272 0.011498384
-0.11491413 -0.0703146 0.08309371 0.11166961 -0.08747475 0.019873181 0.02800893 -0.52823436
0.09056696 0.028592363 -0.0024104984 0.0018145242 0.119296 -0.042644117 -0.11959214 0.061455216
-0.08655138 -0.03104515 -0.1424122 0.016857918 -0.12336133 0.030303355 0.13177948 0.04376573
0.002055594 -0.047883797 0.047814924 -0.061378118 0.014569301 0.013066526 -0.07183987 -0.078501776
-0.15075454 -0.15098906 0.0057221777 0.07838659 -0.025533129 -0.13306557 -0.010680575 -0.054625493
-0.084437676 0.026940085 0.005700279 0.054339197 0.052880872 0.029374165 -0.1044983 -0.047037683
-0.115933396 0.010850752 0.07526536 -0.013491951 0.08602622 -0.0968571 -0.019024564 -0.09145163
0.045643516 0.124418296 0.05431637 0.014421486 -0.013368945 0.08341752 0.09489137 -0.029766357
0.014324757 0.096260235 -0.053764228 0.008824485 0.089632176 -0.07295762 -0.08149834 0.081781834
0.11406545 -0.0007412933 0.011223146 0.2028053 -0.051679693 0.069901615 -0.09997656 0.14238252

conv_layers.0.gate_fn.bias f4 [2]
00000000: 2e0f edbe 17dc fc3d
-0.46300644 0.12346666

conv_layers.0.gate_m.weight f4 [64, 2]
00000000: 5cce 1bbf e985 313e f8d0 12bf b1ba 063f
00000010: bdc2 6e3e 444f bbbe 2838 0f3f 38dd 2d3e
00000020: 3569 95bd 2122 6ebe c293 bb3e 2d40 4f3e
00000030: b9b5 e7be 6c25 53be b627 29bd abda 02bf
00000040: 027b 0a3f 24c6 c6be 93ab a73e 1855 d6be
00000050: 8394 21bf bef7 dc3e c99d dcbd fdf2 ae3e
00000060: aa2f 38be dda2 b13e 3b86 b5be b3fb 03bf
00000070: 96b2 163f 2608 043f 43fc 3f3d 96a2 2c3e
00000080: a21a d7bc 4fc7 143e 3b99 e63c 6c69 293e
00000090: 99a1 a9be b8a6 45bf 33b6 74be 5796 793e
000000a0: 2c3d f5be 3af3 06bf 3c80 18be 8bc8 0c3f
000000b0: d392 7dbe b53a 923c 502b 7dbe d76b 203f
000000c0: 2226 94be e199 013f 4ae6 1a3f fbaa e73e
000000d0: b7f8 b4be f417 9f3e 858c 9abe 5798 0dbf
000000e0: 1ca6 133f 9529 a43c 2896 ffbe 8982 23be
000000f0: e241 df3e bd5f 53be 67bb e93c 696e 35bf
00000100: efd0 fbbd f606 0a3f b171 9cbc 5151 f73e
00000110: 09d4 b4be 226f dd3e 443b a5be fe74 043f
00000120: 99e2 233f fd40 333e d598 113f c931 c23e
00000130: e65c 84be 6884 243e c9d2 1abf 0eec 1abc
00000140: f4ed 143f cfb1 35bd 30ef 95be 850b d03e
00000150: 3cdc 703e b81d 3f3f b25b 9b3e 422e b4be
00000160: e28f 08bf 1652 babe 4332 67bd 1be7 353d
00000170: 7a07 2ebf d4b0 b53e e0d4 7cbe 97d0 d73e
00000180: e155 093f 1222 afbe 99db 333f 2b7f a2be
00000190: 6e96 063f f367 053f 92b8 093f 2488 12be
000001a0: a5f3 c0be 88db cabc e8a8 423e 2293 43bf
000001b0: e2af b63e 63b8 d1be 57ae df3d 822c d6bc
000001c0: 4046 21bf 2378 fbbe 74fd 8fbe 278f 513e
000001d0: acee d13e bebf 3e3f 21b1 363d 68b7 c13e
000001e0: 9f10 9cbd 39f2 e63e 8b83 33bc eb53 6fbe
000001f0: a6d1 123f a1f0 603d 2f4b 073f 4d3a f73e
-0.60861754 0.17336239 -0.5735011 0.5262862 0.23316474 -0.36583912 0.5594506 0.1697892
-0.07295457 -0.23255207 0.36636168 0.20239325 -0.4525583 -0.20619744 -0.041297637 -0.5111491
0.54093945 -0.38823044 0.32748088 -0.41861796 -0.63117236 0.43157762 -0.10772283 0.3416976
-0.17986932 0.34694567 -0.35453972 -0.5155594 0.5886625 0.51574934 0.046871435 0.16858897
-0.026257817 0.14529155 0.028149238 0.16544122 -0.33131102 -0.7720752 -0.23897628 0.24373756
-0.47898233 -0.52714884 -0.14892668 0.54993504 -0.2476304 0.01785026 -0.24723554 0.6266455
-0.28935343 0.50625426 0.60507643 0.45247635 -0.35346004 0.31072962 -0.30185333 -0.5531058
0.5767534 0.02003936 -0.49919248 -0.15967764 0.43604952 -0.2064199 0.028531743 -0.708716
-0.1229571 0.5391687 -0.019097181 0.48304227 -0.3531802 0.4324885 -0.3227178 0.51741016
0.64017636 0.1750526 0.5687383 0.37928608 -0.25852126 0.16066134 -0.6047788 -0.009455694
0.5817559 -0.044359025 -0.29284048 0.4063379 0.23521513 0.7465472 0.30343395 -0.35191542
-0.5334455 -0.36390752 -0.056444418 0.044409852 -0.6798016 0.35486472 -0.2469058 0.4215133
0.53646666 -0.3420568 0.70256954 -0.31737646 0.5257329 0.5211174 0.53797257 -0.14309746
-0.37685886 -0.024762884 0.19009745 -0.7639638 0.35681063 -0.40960988 0.109219246 -0.02614427
-0.6299782 -0.49115095 -0.28123057 0.20464765 0.41002405 0.74511325 0.044602517 0.3783524
-0.07620358 0.45106676 -0.010956655 -0.23371856 0.5735115 0.05491698 0.52849096 0.48286667

conv_layers.0.gate_m.bias f4 [64]
00000000: 9739 10bf edb0 423f 4618 70be d341 c93e
00000010: 6671 60bd a94a 2bbf a0ab 533f 7de0 e83e
00000020: 602d 11bf d917 813e a640 1e3e b4ff 0d3d
00000030: 0eb7 633f 275a 15bf 2061 693d 0aa8 88bf
00000040: 1b74 56bf 0c91 27bf f05d a8be f90b 9ebe
00000050: 7161 2c3f bf62 133f 71e9 3fbf 27a6 e63e
00000060: 0502 833f ae46 7cbf ab62 6d3f 5e93 0cbe
00000070: aff3 3c3e 15b8 0bbf dc1d d83d ac73 35be
00000080: 64f1 65bf f5ba 4fbf 61b1 353f b55b 81be
00000090: cede a0bc 1b86 38bf 2f35 eb3d 4d2d 743f
000000a0: 96ae e3be dc98 30bd f0e9 763f 53d3 37bf
000000b0: 5d95 363f 3f06 fa3e 15a7 5abe 9912 613f
000000c0: 44a9 9abd effc 2f3f 3e01 45bf da71 1abf
000000d0: d232 82bf 7334 4b3d 234f 15be 96b6 343f
000000e0: 5f78 403e 42bc 22bf 1cd1 7b3f 82a3 02be
000000f0: 89eb 26bf 0111 6f3f e78d 913e 0d4f 0bbf
-0.56337875 0.7605122 -0.2344676 0.39308032 -0.054795645 -0.669108 0.82683754 0.4548377
-0.5670986 0.25213507 0.15454349 0.034667686 0.88951194 -0.58340687 0.05697739 -1.0676281
-0.8377091 -0.654557 -0.3288417 -0.3086851 0.67336184 0.5757255 -0.7496558 0.4504864
1.0234991 -0.9854535 0.9272868 -0.13728091 0.18452333 -0.5457776 0.1055257 -0.17719907
-0.8982146 -0.8114465 0.70973784 -0.2526528 -0.019637492 -0.7207963 0.11484753 0.95381624
-0.44469136 -0.043114528 0.9645071 -0.7180683 0.7132166 0.4883289 -0.21352799 0.87919
-0.07551816 0.6874532 -0.7695502 -0.60329974 -1.0171759 0.049610566 -0.1458097 0.70591104
0.18795918 -0.6356851 0.9836595 -0.12757686 -0.6520315 0.9338532 0.28428575 -0.54417497

conv_layers.0.merger_layer.weight f4 [30, 32]
00000000: c15e 0c3d 90d2 a7bc fbc8 063e 9f93 1abe
00000010: 4a2c 773b 233b 9abd e9bd 563d d814 853d
00000020: 58ee 613d 18bd fd3d d050 ad3c 555e c8bb
00000030: 74b8 053e 1265 de3d 67d6 15be eaa3 0d3e
00000040: 2f96 fa3d 642d 00be 9029 b93d 82d4 ef3d
00000050: f0e1 1a3d 534d 8cbd 6fef aabd 2326 993d
00000060: 710f fb3d b507 d9bd 6933 da3d 9112 bf3c
00000070: 8b14 e0bc 6e4c a03d c6c7 4bbe 1814 80bd
00000080: abd6 233f 5705 753f df47 a83d 958a 0dbe
00000090: 2b7f 06be 0d31 823d e73a ccbd 61aa 923d
000000a0: fd82 83bd 6fd3 163e 78b9 e7bd 8f00 303e
000000b0: 58e2 81bc a36a a5bd a13b 143e bda5 42be
000000c0: 7362 743d 92c8 033e 5f3f 2cbc 6d04 b3bc
000000d0: 7085 88be 04a7 bebd b04c 74bd 5b17 56be
000000e0: bd6f 18be 0fdd 653d ba6a e73d 2f9c b138
000000f0: 2ad8 44bd c236 ac3d 4e19 153e 8d44 0ebe
00000100: d552 703f d8e5 5d3f 8a12 153d d152 b23d
00000110: ebbe 773b 01cb 073e 8fcb b1bd f47a dabd
00000120: 0570 023b 7abb 6d3d 06b5 c13d 8efc ebbb
00000130: a16e afbd 5873 02be c328 813c 7f46 0fbe
00000140: 6dfb 023e 3182 08be bf33 39be a227 25be
00000150: e4b4 22be 7343 7f3d 5c2e 27be 0736 cbbd
00000160: f7b3 19be 1dc5 6ebd 4960 143d dc13 2ebe
00000170: c1c4 e43d 0a69 0bbd 141d 31bd 57f7 a93d
00000180: 1325 f9bc b282 e9bd 1cc1 d6bd 4625 b83d
00000190: 0e58 1ebe 38e6 95bd e9c5 2b3b 4e82 f23d
000001a0: 094c 0e3e 390a 54bd 2998 1e3e 65f0 cabd
000001b0: f3d2 1d3e 746b cbbc 4209 5b3d 98ad c4bd
000001c0: e748 1bbd 33be 1e3e fc8a 083e 88a3 14be
000001d0: 38ea b7bc 096b 1cbe 9eb4 643d 8467 99bd
000001e0: f174 1fbe e8b7 213e 54ea e53b 43cd 02bd
000001f0: 7b70 1fbd 61d3 873d 4813 a4bd 626b 3b3d
00000200: d859 ec3b a203 dc3d ae4f d23d 4e3f bd3d
00000210: 0131 52bd c89a e6bd b0f7 afbd 8882 8ebd
00000220: 6421 a83c a46c 433e 938b 93bd b22a 68bd
00000230: 3ab5 c53d 33bc 4abe 1f9d dabc 098d ad3d
00000240: ba56 d3bd 9af6 f3bd aa80 16bd f686 8f3d
00000250: 8f59 a4bc 4690 95bd d418 a73d c6d5 7ebc
00000260: f1af 30be 9d91 3c3d 7b57 f53d 0467 8cbd
00000270: f8f3 22bd 3eb6 d6bd 7458 b6bd 1ed6 023e
00000280: 7b91 6d3d 91c0 fcbd e4dc 553c 05ff e8bc
00000290: c963 32ba 725a e1bd 4464 593d 8983 763d
000002a0: d922 15be b2f8 083d cfd6 a63d 88e4 fc3c
000002b0: 95e2 983d b216 84bd 59f4 03bc 1d96 1b3e
000002c0: 381d d5bd 3b7a 17be 2657 2dbd 8c90 0d3d
000002d0: 4aaf c5bd 44dc 2f3e 7a4e a2bd 968d 6ebd
000002e0: 1745 17be e154 733d 75f3 503d 70a5 9cbb
000002f0: 71ad 6bbd 4e56 c9bd c552 13be 0bcd 1fbe
00000300: 554b 4d3f 926f 213f d2d1 af3d b2cb f43d
00000310: 6d28 a7bd bf7d 1a3e ea6e 133e b0eb 64bd
00000320: 6430 243e 6e9d 483e 8757 f13d affa 1e3c
00000330: 3feb ccbd 26d9 49be f8c7 243d e3d4 00be
00000340: 3fcf 15be 7970 00bd eb15 c23d a9c3 b43d
00000350: bbf8 723d 2d57 403e f3db 133d 4123 18be
00000360: 10d5 41be cf6c 903d 27e3 47bd a1a8 bd3d
00000370: 7a1e 8d3c 4532 06be 2cb4 c63b 3a76 0fbe
00000380: d295 1ebe 1e02 25be e30d b73d afe0 16bd
00000390: 6534 adbd bc32 f63a 0f44 ce3d 105c 3f3d
000003a0: 3813 1b3e 4bdd 03be 6761 0fbe 9271 1c3e
000003b0: 3a76 2f3c 6b46 b33c 9a03 243d f863 0abe
000003c0: 8cb6 ac3d 5b7c b93d bf76 f93d 36e8 2cbe
000003d0: 4bee 8a3d b551 c93c f69a 3d3d c755 563d
000003e0: 6d00 39bd 8401 83bd 3354 c73d 7621 853c
000003f0: 4e43 303d 7f76 d4bd 03c5 6bbd 3889 793d
0.034270052 -0.020486146 0.13162605 -0.15095375 0.0037715607 -0.07530811 0.052427206 0.06498116
0.055158943 0.123895824 0.021156698 -0.006114761 0.13058645 0.108591214 -0.14632569 0.1383206
0.122356765 -0.12517315 0.090411305 0.117104545 0.037813127 -0.06850686 -0.083464496 0.07477977
0.122588046 -0.10597173 0.10654337 0.023324283 -0.027353546 0.07827078 -0.19900426 -0.062538326
0.6399943 0.9571127 0.08216833 -0.13822396 -0.13134448 0.06357012 -0.09972172 0.071614034
-0.064214684 0.14729093 -0.11314672 0.17187713 -0.015855 -0.0807698 0.14475872 -0.19008537
0.0596642 0.1286948 -0.010513156 -0.021852696 -0.26664305 -0.093091995 -0.059643447 -0.20907347
-0.14886375 0.05611902 0.11299653 8.469109e-05 -0.048057713 0.08408882 0.14560434 -0.13893338
0.9387639 0.8667884 0.036394633 0.08707202 0.0037803005 0.13261034 -0.08681404 -0.10667983
0.0019903195 0.05804012 0.094583556 -0.0072017377 -0.08566023 -0.12739313 0.015766507 -0.13991736
0.12791224 -0.13330914 -0.18086146 -0.161284 -0.15889317 0.062320184 -0.16326278 -0.09922414
-0.15010057 -0.05829345 0.036224637 -0.16999763 0.1117034 -0.03403572 -0.04324062 0.082991295
-0.030413186 -0.11401881 -0.104860514 0.08991484 -0.15463278 -0.07319301 0.0026210493 0.1184126
0.13896193 -0.05176756 0.15487732 -0.09909133 0.15412502 -0.024831511 0.053475626 -0.09603423
-0.037911322 0.15502243 0.13334268 -0.14515507 -0.022450551 -0.15275206 0.055836312 -0.07490447
-0.15571953 0.15792811 0.0070164595 -0.031934034 -0.03892563 0.06632114 -0.0801149 0.045756705
0.0072128586 0.107428804 0.10269104 0.0924059 -0.051316265 -0.11259991 -0.085921645 -0.069584906
0.020523734 0.19084412 -0.07204356 -0.056681342 0.09653707 -0.19798355 -0.02668625 0.08474166
-0.10319276 -0.1191227 -0.036743797 0.07008164 -0.020062236 -0.073029086 0.081590325 -0.015553897
-0.17254616 0.046037305 0.11979576 -0.06855586 -0.039783448 -0.10483979 -0.0890359 0.12776992
0.05800007 -0.123414166 0.013053153 -0.028441915 -0.000680503 -0.11003579 0.053074136 0.060184035
-0.14564075 0.0334403 0.0814644 0.030870691 0.07465092 -0.06449641 -0.0080538625 0.15193982
-0.10405964 -0.14792721 -0.04231944 0.03456168 -0.09652574 0.17173868 -0.079251245 -0.058240496
-0.1477245 0.05940712 0.05101343 -0.004780464 -0.057538453 -0.098309144 -0.14387043 -0.15605561
0.8019307 0.6306087 0.08584942 0.11952914 -0.081620075 0.15087031 0.14397779 -0.05588883
0.16034085 0.19591305 0.11784273 0.009703322 -0.10005807 -0.19711742 0.040229768 -0.1258121
-0.1462984 -0.031357262 0.09476837 0.08826382 0.05931924 0.18783255 0.03609843 -0.14857198
-0.18928933 0.070520036 -0.048800614 0.09260679 0.017226446 -0.13105114 0.0060639586 -0.14009944
-0.1548684 -0.16114089 0.089381956 -0.03683537 -0.08457259 0.001878343 0.10071575 0.046718657
0.1514405 -0.12877385 -0.14002 0.15277699 0.01070934 0.021884164 0.040042497 -0.13514698
0.084332556 0.09056922 0.12180852 -0.16885456 0.06783732 0.024575094 0.04629036 0.052327897
-0.04516642 -0.063967735 0.097328566 0.016251307 0.043032937 -0.10374164 -0.057560932 0.060921878

conv_layers.0.merger_layer.bias f4 [30]
00000000: b73c 103e 47c9 763f d158 623f d2e0 b8bd
00000010: e73d e0bc 6f44 8fbc ce34 053f 2780 97bd
00000020: ca99 a2bd 05b7 3cbf cdca 413d c1b9 14be
00000030: 1f05 0b3e d082 0dbd 3fea adbe 1447 f8bd
00000040: 4ca6 01be 8904 a1be 33bd 26bd 1887 9cbc
00000050: 3b84 80bd d7d2 b3bd 56be 80be 8a6c 25bc
00000060: a0df 8bbd b95f 14be 018b c5be bf4d 26bf
00000070: 0751 ed3c b284 37bf
0.14085661 0.96400875 0.88416773 -0.09027256 -0.027373267 -0.017488686 0.520337 -0.0739749
-0.07939489 -0.73716766 0.047312547 -0.14523984 0.13576172 -0.03454858 -0.33967778 -0.12122932
-0.12661093 -0.31448773 -0.04070778 -0.019107386 -0.06275221 -0.08780449 -0.25145215 -0.0100966785
-0.068297625 -0.1448964 -0.38582614 -0.6496238 0.0289693 -0.7168685
