encoder_state_dict.pth (torch, 10066 bytes, 10 tensors)

conv_layers.0.gatlayer.attn_l f4 [1, 2, 30]
000000 76 30 a9 bc 94 8e c5 3c 3b 80 61 3d 63 69 30 bd
       -0.02065299 0.024115838 0.05505393 -0.043069255
000010 32 c9 ec be 5a 01 27 3c 97 c0 0c be 53 01 51 3d
       -0.4624725 0.010193193 -0.13745342 0.051026653
000020 7d f4 73 bd 5a 34 68 3e 0a 1c d0 bc b7 7e be bb
       -0.059559334 0.2267622 -0.025403995 -0.0058134454
000030 07 fa 30 bd e9 18 c9 bd 28 8f cc bd f9 80 35 be
       -0.043207195 -0.09819204 -0.099882424 -0.1772498
000040 0d a1 07 be 3d d2 59 be fd 25 dd 3c 00 5d a4 3d
       -0.1324503 -0.21271606 0.026995653 0.08025551
000050 3f 76 8a bd 51 7d f1 bd a2 66 e4 3d eb 11 70 3c
       -0.06760835 -0.1179148 0.11152388 0.0146527095
000060 c5 ab db 3d a2 fa 99 be 22 b7 bc 3e 5d c5 cb be
       0.10726122 -0.3007403 0.3685847 -0.39799014
000070 90 bf 23 bd 6a aa 43 3e d2 19 4e 3d b6 40 8a 3e
       -0.03997761 0.19107977 0.050317593 0.27002496
000080 34 7d c2 bd 38 41 e4 bd 5b 2c bc be 8c 59 3e be
       -0.09496537 -0.11145252 -0.3675259 -0.18588847
000090 8e 4f fb bd d5 cf e5 3d 62 2b 0c 3e b8 bf 0b 3e
       -0.12271033 0.112212814 0.13688424 0.13647354
0000a0 c2 3a a1 be d0 a0 bc 3e b8 0f 19 3e 06 05 7d be
       -0.3149014 0.3684144 0.14947402 -0.24708948
0000b0 b0 39 ce 3d 6b 22 c3 bc 46 6b 6b be 10 39 53 bb
       0.10069597 -0.023820123 -0.2299014 -0.0032230057
0000c0 45 2e 5b be e0 10 07 3e 85 e4 21 be 04 a1 a1 3c
       -0.21404369 0.13190031 -0.1580983 0.019730099
0000d0 cf 34 c1 bd bd e8 8f be 58 68 08 3f 32 ae 1c 3e
       -0.094339006 -0.28107253 0.53284216 0.15300825
0000e0 f6 6b 9c 3d fc 0d 58 3e 3d a6 f3 bd 43 4b 36 3d
       0.076377794 0.21099085 -0.11896942 0.04450537

conv_layers.0.gatlayer.attn_r f4 [1, 2, 30]
000000 fb 82 a7 3e 79 ff 92 3d 78 3e f2 3d 70 61 41 be
       0.32717118 0.07177634 0.11828321 -0.18884826
000010 8f 0e d8 bd 5d e4 42 bc 49 a2 69 3e a3 6c 34 3e
       -0.10549652 -0.011895266 0.22815813 0.17619567
000020 7c 05 61 be 46 4b b9 3e b6 e5 50 bd 76 ed 4d 3e
       -0.21974748 0.36190242 -0.05100032 0.20110115
000030 67 6f e6 bd c3 82 6c bd 79 6a fd 3d 70 a6 1f 3e
       -0.11251717 -0.05774189 0.12373824 0.15590835
000040 36 15 bf bd e2 55 03 3d ea f4 bc 3c 60 d3 fd bd
       -0.093302175 0.032064326 0.023066003 -0.12393832
000050 07 81 55 3c 3f e4 8d 3e d3 f5 4e 3e 45 2c ac be
       0.013031251 0.277132 0.20210962 -0.33627525
000060 67 00 4b 3e 9a df 79 be e0 95 78 be 1c 83 36 3e
       0.19824372 -0.24401703 -0.24275923 0.17823452
000070 53 d7 60 3e 30 21 c6 be 1f 5f e9 3d da 73 70 be
       0.2195714 -0.38697195 0.11395096 -0.23481694
000080 d8 99 6e be ce 95 87 3d fb 70 89 bc d6 74 ff bd
       -0.23300874 0.0662037 -0.016777506 -0.124734566
000090 35 4f 9d 3c 00 96 e8 bd d8 8f aa bc 55 f0 95 be
       0.019202808 -0.11356735 -0.020820543 -0.2928492
0000a0 9d 4c e0 bd 14 95 d9 bc 28 32 6a 3e 26 de b5 bb
       -0.10952113 -0.026560344 0.22870696 -0.005550164
0000b0 02 a7 a1 3d 19 71 18 3e af 96 06 bc 61 5c 02 3e
       0.07893182 0.14886893 -0.008214637 0.12730552
0000c0 0b 26 5a 3e f9 86 dd 3d c2 09 80 be 75 70 45 3c
       0.21303575 0.108167596 -0.25007445 0.012050738
0000d0 fa a3 6e bc f0 b0 30 3d 56 32 73 3e df fa 64 be
       -0.014565462 0.04313749 0.2374967 -0.22361325
0000e0 ca b3 e4 3e 85 23 43 3d 64 2a 47 bd 08 e6 02 3f
       0.44668418 0.047641296 -0.04862441 0.5113225

conv_layers.0.gatlayer.bias f4 [60]
000000 00 00 00 00 00 00 00 00 00 00 00 00 00 00 00 00
       0.0 0.0 0.0 0.0
000010 00 00 00 00 00 00 00 00 00 00 00 00 00 00 00 00
       0.0 0.0 0.0 0.0
000020 00 00 00 00 00 00 00 00 00 00 00 00 00 00 00 00
       0.0 0.0 0.0 0.0
000030 00 00 00 00 00 00 00 00 00 00 00 00 00 00 00 00
       0.0 0.0 0.0 0.0
000040 00 00 00 00 00 00 00 00 00 00 00 00 00 00 00 00
       0.0 0.0 0.0 0.0
000050 00 00 00 00 00 00 00 00 00 00 00 00 00 00 00 00
       0.0 0.0 0.0 0.0
000060 00 00 00 00 00 00 00 00 00 00 00 00 00 00 00 00
       0.0 0.0 0.0 0.0
000070 00 00 00 00 00 00 00 00 00 00 00 00 00 00 00 00
       0.0 0.0 0.0 0.0
000080 00 00 00 00 00 00 00 00 00 00 00 00 00 00 00 00
       0.0 0.0 0.0 0.0
000090 00 00 00 00 00 00 00 00 00 00 00 00 00 00 00 00
       0.0 0.0 0.0 0.0
0000a0 00 00 00 00 00 00 00 00 00 00 00 00 00 00 00 00
       0.0 0.0 0.0 0.0
0000b0 00 00 00 00 00 00 00 00 00 00 00 00 00 00 00 00
       0.0 0.0 0.0 0.0
0000c0 00 00 00 00 00 00 00 00 00 00 00 00 00 00 00 00
       0.0 0.0 0.0 0.0
0000d0 00 00 00 00 00 00 00 00 00 00 00 00 00 00 00 00
       0.0 0.0 0.0 0.0
0000e0 00 00 00 00 00 00 00 00 00 00 00 00 00 00 00 00
       0.0 0.0 0.0 0.0

conv_layers.0.gatlayer.fc.weight f4 [60, 1]
000000 20 3f 99 3e 33 23 11 3f df e3 ab 3d 96 6f 30 bd
       0.29930973 0.56694335 0.08393072 -0.043075167
000010 9e bc 5e bd 2c a3 b3 3d 02 ee 94 be fb d9 b1 3e
       -0.054379098 0.08771357 -0.29087836 0.34736618
000020 1d a8 ef bd 38 5c ac 3e 2c 93 88 3e 18 71 8c be
       -0.11701987 0.33664107 0.26674783 -0.27430034
000030 ae 50 c0 bd 15 55 15 be 5e 32 3d be 51 db 12 3f
       -0.093903884 -0.14583237 -0.18476245 0.573659
000040 ea 2a df be 62 b0 10 3f ee 59 34 be 1f 39 b1 3e
       -0.43587428 0.5651914 -0.1761243 0.34613892
000050 ed cd 02 3f 68 ac 40 3e c5 c9 0c 3f 7f 69 85 be
       0.5109547 0.18815768 0.54995376 -0.2605705
000060 c9 fe ec be 66 b8 50 be 46 15 bc 3e 32 3f 97 3e
       -0.46288136 -0.20382842 0.3673498 0.29540402
000070 50 ae 88 be 7e 13 32 be e5 68 99 be c8 66 a1 bb
       -0.2669549 -0.17390248 -0.2996284 -0.0049255826
000080 5d 67 9f 3d 8c 0e 5a 3e 9e 82 34 be 54 e3 ab 3e
       0.07783387 0.21294612 -0.17627952 0.33571875
000090 0f 78 85 3e ac 6d 42 3e 29 02 95 be d3 7a ca bd
       0.2606816 0.18987149 -0.2910321 -0.09886708
0000a0 bf a8 08 bf 07 08 b2 be d9 cf 75 be a0 b9 cd 3c
       -0.53382486 -0.3477175 -0.24005069 0.025112927
0000b0 a6 d1 61 39 8f cb 8a 3d f3 e0 9c be db 0d 90 be
       0.00021535772 0.06777107 -0.30640373 -0.2813557
0000c0 53 c4 fd 3d 5e a8 8c bc b9 69 86 3d ce bb 03 bf
       0.123909615 -0.017170127 0.06563134 -0.5145844
0000d0 c0 7c 7a 3e ec ec c4 3c d9 c7 b1 3e 23 69 e3 3d
       0.24461651 0.024038754 0.34722784 0.111040376
0000e0 4c 84 5b 3e 69 8b 41 be 7b 8f 4d be 2b 1c 5b bd
       0.21437186 -0.18900837 -0.20074265 -0.05349366

conv_layers.0.gate_fn.weight f4 [2, 66]
000000 85 fb 7c bd 04 49 02 3d cb 8c cf bd 33 fa 5d 3d
       -0.061763305 0.031807914 -0.10134276 0.054193687
000010 8d 64 7c 3b a1 3b 97 3d 3e 0c 01 be 73 21 ee bd
       0.0038512081 0.0738442 -0.12602326 -0.11627474
000020 dc 3c b9 3d 0a 17 0d be e6 93 c2 bd db 2a a8 ba
       0.09044811 -0.1377832 -0.09500866 -0.0012830155
000030 95 ec 78 3e 20 ce c3 3d 0b 60 60 bc 31 da 9c 3d
       0.24308999 0.095607996 -0.013694773 0.07658804
000040 3e 18 d6 bd 75 19 50 3d cf f3 67 3d 2e c1 52 3d
       -0.104538426 0.050805528 0.056629 0.05145376
000050 0e a7 8d 3c 61 ae bf bc fe 8c 07 bd b6 8b 14 3d
       0.017291572 -0.02339858 -0.033093445 0.03626605
000060 82 f7 86 3d fb 00 7e bd e3 4d 22 bd b6 5d 78 39
       0.06590177 -0.062012654 -0.03962506 0.00023686033
000070 c7 b5 0e 3d 28 84 cc 3d f4 84 e9 3c 7c 69 fe bd
       0.034841325 0.09986144 0.02850578 -0.12422463
000080 87 a3 bf 3c a9 aa 07 3b 29 13 e3 bb e8 a1 68 3d
       0.023393406 0.0020701087 -0.0069297743 0.05679503
000090 eb 18 d1 bd 04 da 6e bd 35 25 dd 3d e1 03 48 bd
       -0.10209831 -0.058313385 0.10798112 -0.048831824
0000a0 18 e8 fc bd 8c 6a b3 3d fd 7b 9f bd 5f 76 6b 3c
       -0.12348956 0.087605566 -0.07787321 0.014371484
0000b0 8b c4 d1 3d f0 da 78 bd 39 a9 00 be cc dd 9b 3d
       0.10242566 -0.06075567 -0.12564553 0.07610664
0000c0 cd f0 62 bd 7e 4b 25 bc f4 e2 8f 3d 1b 73 e0 bd
       -0.055405427 -0.0100887995 0.0702571 -0.109594546
0000d0 79 ce bd 3d d5 8b ef 3c d4 a1 53 bd 1e 47 35 3d
       0.09267897 0.029241482 -0.051668003 0.044257276
0000e0 ed d2 6d 3d 1f 96 53 3d 45 c8 62 3d bf 3d c1 3b
       0.058062483 0.05165684 0.055366773 0.0058972533
0000f0 ef 4b 77 bd 85 0d 19 3d fd ed 87 3c 29 69 2d bd
       -0.06037515 0.03736641 0.016592974 -0.042336617
000100 d7 21 2c bc 3d fe 91 37 49 4a b0 bd 2f ff e9 3d
       -0.010506115 1.7403736e-05 -0.08607919 0.114256255
000110 c0 cd 06 3d 7c d8 cc 3d 89 65 5c bd cb 6e 91 3d
       0.032911062 0.100022286 -0.05380777 0.0710121
000120 34 e7 03 3e 5c 91 37 3c ef 82 e7 bd ce f0 ee bd
       0.12881166 0.01120409 -0.113042705 -0.116670236
000130 73 ea ed 3d 6a bb f2 3d 2d 32 5c bd 45 eb 04 3d
       0.11616983 0.11852153 -0.05375879 0.032450933
000140 78 7e 9a bc 24 ea e8 bd dc 6e 12 bc 26 c4 b8 3d
       -0.018859133 -0.11372784 -0.008937564 0.09021787
000150 01 d8 e6 bd 56 44 d5 3d 53 12 97 bc 32 56 d4 bd
       -0.11271668 0.10413425 -0.018441355 -0.10368003
000160 ff d5 24 bd 41 68 4b 3d 58 48 95 bc 5d 88 32 bc
       -0.040243145 0.04965997 -0.018222973 -0.010896769
000170 0d 9f 3e 3d 16 d6 8b 3d 95 3b cd bd e1 3c 3d bd
       0.0465384 0.06827943 -0.1002113 -0.046200637
000180 0d b7 cb 3d 7b a7 08 3d dc bf 87 3d 1f 41 9b 3d
       0.099470235 0.033362847 0.06628391 0.0758078
000190 9f a6 e8 3c 34 c6 9e 3b 4e f2 cb bd 52 67 ec 3d
       0.028399764 0.004845405 -0.09958325 0.11543144
0001a0 c0 50 5d 3d 5f 6b 4b 3c 26 7d 84 3d 44 67 8a b8
       0.054032087 0.012415736 0.06469183 -6.5995875e-05
0001b0 0c c8 f4 3d ca 5e 90 bd 23 36 17 bd fb 48 9e 3d
       0.119522184 -0.070493296 -0.036916863 0.07728764
0001c0 a0 66 cb 3d 3d 1e c7 3b 48 b2 9f bc 27 35 9e 3b
       0.099316835 0.0060766027 -0.01949419 0.0048281136
0001d0 56 dc 3e bd 3c 93 99 3c 9d b4 03 bd e9 5e a8 3b
       -0.046596847 0.018746965 -0.032154668 0.0051382673
0001e0 4d fa 02 be d5 fb 1c bc 20 69 32 bd 73 4c 1b bd
       -0.12790795 -0.009581526 -0.043557286 -0.037914705
0001f0 39 ca 89 bd 1f 65 25 3d 02 85 99 bc ff 3f e1 bd
       -0.06728024 0.04037964 -0.01874018 -0.109985344
000200 8d 69 ca 3d b8 ce aa bb ea aa cf 3b 42 c6 61 3d
       0.098834135 -0.005212631 0.006337513 0.055120714

conv_layers.0.gate_fn.bias f4 [2]
000000 f3 fb ea 3d 69 ac 1a 3d
       0.11473837 0.03776208

conv_layers.0.gate_m.weight f4 [64, 1]
000000 b6 72 62 3d fc 26 6d bf 04 37 e4 bd 39 0d ae 3e
       0.055285178 -0.9263761 -0.11143306 0.33994463
000010 13 d1 69 3f 02 ba 13 3f ad 12 9c 3e 70 20 47 bf
       0.91334647 0.577057 0.30482998 -0.7778387
000020 ac e6 c1 bd ab 7a e2 be c7 fc 40 3f 3e 02 47 bb
       -0.09467825 -0.44234213 0.7538571 -0.0030366327
000030 22 ea cb 3d 7a 06 5a 3f 07 6b 04 be c1 57 0a 3f
       0.09956767 0.8516613 -0.12931453 0.5404015
000040 f5 f4 12 be ba 96 6f bf 37 0d 26 3c bd 10 19 bf
       -0.14351256 -0.93589365 0.010134987 -0.59791166
000050 d5 c4 74 bf 25 e2 3c 3f 84 81 35 3f 4c e3 88 be
       -0.9561284 0.7378257 0.7090075 -0.26735914
000060 62 51 91 3e 43 a0 82 be 16 1c d4 3e fe bf c2 3e
       0.28382403 -0.25512895 0.41427678 0.38037103
000070 e7 c7 3e bf 29 86 b3 3c 2c 55 3d be dc e4 06 bf
       -0.74523777 0.021914558 -0.18489522 -0.5269296
000080 01 f4 5b be 44 98 83 3e cd 43 f8 3e cc 7c 4e bf
       -0.21479799 0.25702107 0.48489228 -0.80659175
000090 5a 34 d9 3e 85 cb 45 3e df 04 42 3f 19 7a 0f 3d
       0.42422754 0.19315918 0.7578868 0.03502855
0000a0 e0 18 c3 be bd 94 84 3d 52 f3 ec 3e ca af 6a 3f
       -0.38104916 0.06473682 0.4627939 0.9167448
0000b0 ef b8 65 be f6 d6 2a bf 0d ba 16 3f b8 3a 36 bf
       -0.22433828 -0.66734254 0.5887764 -0.7118335
0000c0 b3 5d 86 3d c3 9d 40 bf 6e 32 81 3f 58 8a 70 bf
       0.065608405 -0.75240725 1.0093515 -0.93961096
0000d0 fc 7e a2 3e 56 36 2a bf 3d 91 5c 3f 48 a6 f8 3e
       0.31737506 -0.6648916 0.86159116 0.48564363
0000e0 f8 b6 75 3f c7 39 6b 3d 6a f8 ec 3e 9b 64 2a 3e
       0.95982313 0.057428148 0.46283275 0.1663994
0000f0 d6 5a 93 be a2 ae 3d bf 90 26 40 3f 01 63 9f bd
       -0.2878024 -0.74094594 0.7505884 -0.07782555

conv_layers.0.gate_m.bias f4 [64]
000000 6e a0 76 3f 55 7a df 3c 33 41 11 bf 28 d3 51 3f
       0.96338546 0.027280012 -0.5674011 0.81962824
000010 84 b7 89 3f 60 9c 5b bf d7 b4 18 3e 28 a8 2c 3f
       1.075913 -0.85785484 0.14912735 0.67444086
000020 57 75 bf be 23 2c 5e bf 0c 85 3a bd 1f 9d e2 3e
       -0.3739421 -0.867861 -0.04553704 0.442605
000030 45 47 44 3e 03 22 5f be 5b d9 16 bf cf 66 a7 3e
       0.19167812 -0.21790318 -0.5892541 0.32695624
000040 31 6b 0e 3f 6b 18 b6 bd 82 ec 86 3f 71 05 43 bc
       0.5563231 -0.08891376 1.0540926 -0.011903153
000050 43 69 7c bf 44 ba 0b bf 07 7b 1b 3f 6d 3b 86 be
       -0.98598117 -0.54581094 0.607346 -0.26217213
000060 82 3d 48 bf cd 9d 31 be e1 1c eb be 0a a2 32 3e
       -0.78218853 -0.17345352 -0.4592047 0.17444625
000070 16 31 32 bf a3 92 65 be 13 43 27 bf a4 82 5c bd
       -0.6960615 -0.22419219 -0.6533672 -0.053835526
000080 63 85 cc be 5f 5a c7 be 11 e0 d7 be 54 fb c4 3d
       -0.39945516 -0.38936135 -0.42163137 0.096182495
000090 57 a0 52 3f f2 ab 54 3f 94 c6 15 bf 47 ed 87 bf
       0.8227591 0.8307487 -0.5850613 -1.0619286
0000a0 d4 3a 0a 3f fa bc 7f be 72 42 c1 be 24 e4 4d 3f
       0.53996015 -0.24974433 -0.37746006 0.8042624
0000b0 b0 0d 8c bf 63 75 fc 3d 73 84 60 3f e7 4e 91 bf
       -1.0941677 0.12327077 0.877021 -1.1352204
0000c0 1b 6d a7 be 2e 02 30 3e cd e7 97 be 4b 66 4b 3e
       -0.32700428 0.17188331 -0.29669037 0.1986324
0000d0 d3 fe 42 bf 4d 7a 3d 3f f4 68 46 3f c8 f3 56 3f
       -0.7617008 0.7401474 0.77503896 0.8396573
0000e0 e2 a1 d8 3e a1 90 46 3d d0 9c 80 3d 42 55 ec bd
       0.42311007 0.048477773 0.062799096 -0.11539699
0000f0 be 01 e6 be eb 7d 84 be b1 33 bc bd 23 6b e4 3e
       -0.44923204 -0.25877318 -0.09189547 0.4461299

conv_layers.0.merger_layer.weight f4 [30, 31]
000000 63 a5 26 3e bd 11 23 3e b1 4a eb bc 60 da 4c bd
       0.16274028 0.15924735 -0.02872214 -0.050012946
000010 b8 d9 1c 3e 04 b2 02 3e 6f f4 fe 3d e2 fe 07 3e
       0.15317428 0.1276322 0.12448966 0.13280824
000020 26 cb f0 bd e7 4b 0d be d2 6e 4d 3e 9d 71 02 be
       -0.117574975 -0.13798486 0.20061806 -0.12738653
000030 1d 6f a2 bd 2f 0c 20 3c 4d 84 15 be 2f 5f 9c bd
       -0.079313494 0.00976853 -0.1460125 -0.07635342
000040 15 63 31 3d e5 fb 8d bd 03 73 f7 3d 6d 46 34 be
       0.043307383 -0.06932811 0.120824836 -0.1760499
000050 4a 1e 9d 3d 59 69 13 3e e3 a4 52 3d 3f 75 a7 3d
       0.07671793 0.14395656 0.05142678 0.0817666
000060 b9 ca 45 be 98 3b 0c 3b 8b c4 31 be 13 a1 dd 3d
       -0.19315614 0.0021397825 -0.17360131 0.10821738
000070 10 9a 3f 3e 64 fa e7 3d cb 41 6e 3c 5a 07 d1 3d
       0.18711114 0.11327055 0.014542053 0.1020648
000080 6a 46 0f 3e 83 74 91 3d 76 e5 b3 3d 8a c0 e6 3d
       0.13991705 0.07102301 0.087840006 0.11267193
000090 a4 db 82 bd d9 d5 ee bd 5d 9a 90 3d 59 2f 54 bd
       -0.063895494 -0.11661882 0.070606925 -0.051802967
0000a0 3a 4e 59 bc 48 1f f6 3d 4c 0b 1c bd b1 3b ff 3d
       -0.01326328 0.12017685 -0.03809671 0.12462557
0000b0 a1 1b 15 3e 73 0c 5a be 74 e8 36 bc b3 61 4b 3e
       0.14561321 -0.21293812 -0.01116382 0.19861488
0000c0 19 77 0a be cd e2 cc 3d 01 f2 8a 3c 54 f4 ef 3d
       -0.13521995 0.10004196 0.0169611 0.11716524
0000d0 34 4f 58 3d ae 1d 92 3d be 51 e4 3d 3f cf c3 3d
       0.05280991 0.07134567 0.111484036 0.095610134
0000e0 de ea 3e 3d 4d fc 20 be 76 fe 96 3d fd ee b4 bd
       0.046610706 -0.15721245 0.07372753 -0.08834646
0000f0 69 32 2d be 4c 48 98 3d 1b 99 85 bd a0 07 4c 3e
       -0.16913761 0.074356645 -0.06523343 0.19924784
000100 09 42 00 bd 4e ae fb 3d 8c b0 2d be a1 bc 0c 3c
       -0.031312976 0.12289105 -0.16961879 0.0085898945
000110 a2 c5 f7 3d 05 3d 0c 3d c2 30 1d 3e ea c4 cf bd
       0.12098242 0.03423788 0.15350631 -0.1014498
000120 6f b4 97 3d 7e 4e f7 3c 6e f6 b9 bd a9 0c b9 bc
       0.07407462 0.030188795 -0.09080206 -0.022589045
000130 33 ba 3f bd b8 87 2c be a2 ef 8e 3c f3 25 fa bd
       -0.046808433 -0.16848648 0.01744825 -0.122142695
000140 d3 1c 29 bd 80 6d db 3d 15 b0 34 bd b3 4f 27 3e
       -0.041287255 0.10714245 -0.044113237 0.16338997
000150 e0 47 3d 3d 18 3b cd 3d b4 a8 38 be 75 1b 51 be
       0.046211123 0.10021037 -0.18033105 -0.2042063
000160 e2 3b a4 3d 35 c0 14 be 61 fb 2a 3e d2 ed 4f bd
       0.08019234 -0.14526446 0.16697456 -0.050763912
000170 5d c1 17 3e 50 37 34 3d f1 0a e9 3d 00 00 7c bc
       0.14819856 0.043998063 0.1137904 -0.015380859
000180 71 a8 be 3d 88 42 05 be dc ae d4 bd 24 c4 68 3d
       0.093094714 -0.13013661 -0.10384914 0.05682768
000190 33 c3 b1 bd b1 f1 6c 3d 5c 6d 49 bc 9a 14 4b 3c
       -0.086798094 0.057847682 -0.01229414 0.0123950485
0001a0 39 57 ca bd ce 82 29 bd 22 fb dc 3d a4 03 23 bd
       -0.09879918 -0.04138451 0.10790087 -0.039798394
0001b0 a7 50 08 be 9e a5 53 3e a3 83 db 3d ca 57 45 3d
       -0.13312016 0.20668647 0.10718467 0.048179425
0001c0 ca 40 90 3c 7e a6 70 3d d4 fb 0b 3d cc 93 ff bd
       0.017609019 0.05875253 0.03417571 -0.12479362
0001d0 23 c9 49 3e 76 f2 00 be 07 97 88 bd e6 35 6a bd
       0.19705634 -0.12592492 -0.06669431 -0.057180308
0001e0 22 71 21 3e 88 8b b0 3d 24 96 d0 3d 1b 7e 9b bc
       0.15765813 0.086203635 0.10184887 -0.01898103
0001f0 ee e5 60 bd 31 2a 9f 3d 65 12 dc bd 35 95 39 be
       -0.054906778 0.07771719 -0.10745696 -0.18123324
000200 6e e7 1d be ba 5b 4f 3e 8f de af bd b4 2d 4c be
       -0.15420315 0.20249835 -0.085873716 -0.1993931
000210 d3 52 db bd 7e 3b a0 bd 10 93 e7 3c 03 0c 0a 3e
       -0.10709157 -0.07823847 0.028268367 0.13481145
000220 bc 93 13 be 61 dd e1 bc 0b 2f 8c bd dc fc 5c 3c
       -0.14411825 -0.027571382 -0.0684491 0.013488021
000230 4b 32 64 bd af 1d 81 3c 34 ac e6 bd b6 56 1d be
       -0.055712026 0.015761225 -0.11263314 -0.15365109
000240 fb e9 21 3e 16 2b dd 3d de f7 40 3e 5a 1c f6 bc
       0.15811913 0.107992336 0.18844554 -0.030042816
000250 48 6f 05 be 0c a7 33 bd a5 66 ab bd cd f7 a3 bc
       -0.13030732 -0.04386048 -0.08369187 -0.020015622
000260 04 58 16 3e 94 12 95 3d 80 d8 3c be 40 bb b0 3c
       0.14682013 0.07278934 -0.18441963 0.021573663
000270 2d b2 e5 bd 24 ed e8 3d 28 d3 39 be ce 4a 4f be
       -0.11215625 0.11373356 -0.18146956 -0.2024338
000280 a1 1f 3c 3d 86 14 c2 3b 16 9e 17 be 35 bb a8 3c
       0.0459286 0.0059228567 -0.14806399 0.02059708
000290 cf 55 5a 3e 1b 74 0d 3e 2c d9 15 3e 4a 2a 60 bd
       0.21321796 0.13813822 0.14633626 -0.05472783
0002a0 51 55 fa 3d ec 0f 0e be a3 85 15 3e 73 ba 8a 3d
       0.12223304 -0.13873261 0.1460176 0.067738436
0002b0 f8 f8 3e 3e af 72 1c 3e 3c 71 ec 3c 04 9f 2e bd
       0.18649662 0.15278123 0.028862588 -0.042632118
0002c0 fe 1a c3 3c a9 00 02 3e 52 9e f6 3c 52 ae 73 3d
       0.023816582 0.12695564 0.03010479 0.059492417
0002d0 3b 90 fb bd ff e3 83 bd af f7 61 3c b9 b4 c4 3c
       -0.12283369 -0.06439971 0.0137919625 0.024011957
0002e0 4c 41 db 3d 1d 8c 6b bd a4 10 25 3e 71 3e f2 bd
       0.10705814 -0.05750667 0.16119629 -0.11828316
0002f0 cd dc e7 3d 80 7b 05 3e d3 dc 3e be 68 eb 50 3d
       0.11321411 0.13035393 -0.18638925 0.05100575
000300 4e 40 81 3d da 5b f9 bd 06 78 2b be 1a c1 95 bc
       0.06311093 -0.121757224 -0.16745004 -0.018280555
000310 18 d4 5d 3d 5a 84 d3 bd ee ee c4 3d b4 6d 31 3e
       0.054157346 -0.103279784 0.09615885 0.17327005
000320 0e 30 10 be 3a 2f d2 bd c6 82 a1 3d 4c 84 6d bd
       -0.14080831 -0.10262914 0.07886271 -0.057987496
000330 5c 70 3f 3d f0 7b 5d 3d 37 85 04 be fe 28 06 3a
       0.046738014 0.054073274 -0.12941442 0.00051178026
000340 f2 b6 34 bc 86 52 ae bd ac a2 62 be 66 ba 55 3d
       -0.011029946 -0.08511834 -0.22132367 0.052179717
000350 b1 1f 19 be 95 a4 78 3c 28 43 db ba cc 9c 87 3d
       -0.14953496 0.015175958 -0.0016728388 0.066217035
000360 94 75 55 bd dd 1b fc 3d 4d f7 fe 3d 69 01 de 3d
       -0.052114084 0.12310002 0.12449513 0.10840113
000370 76 fa 04 be f7 36 5e be 23 82 fc bd da 7b 39 3b
       -0.12986168 -0.21700655 -0.12329509 0.002830258
000380 b2 2d 60 bd 71 b9 a5 bd 82 2b b7 bd 37 84 f4 3d
       -0.05473108 -0.08092011 -0.08943845 0.119392805
000390 64 8c 8d bd f8 bd fc 3d 50 2f bd bd 1e 41 09 be
       -0.06911543 0.12340921 -0.0923754 -0.13403746
0003a0 02 d4 49 bd c3 5f bb 3d 50 0a 17 3e 72 c3 32 be
       -0.049274452 0.091491245 0.14750028 -0.17457369
0003b0 ab b6 2c bd 21 db bf bc c9 5a df 3d 0c 94 2a 3e
       -0.042166393 -0.023419918 0.10905988 0.16658038
0003c0 61 11 e4 3c ea 6e 1c 3d cd 6e a4 bd 76 e4 88 3d
       0.027840318 0.038191713 -0.08028946 0.066842005
0003d0 9c eb 60 3d 32 ab 26 be 1c 9a 1c 3e 51 91 cb 3d
       0.054912195 -0.16276243 0.15293163 0.09939826
0003e0 eb ef 33 be d5 c0 bc 3c 58 fb 04 be 72 9b 16 bd
       -0.1757199 0.023041168 -0.12986505 -0.036769338
0003f0 4a 9f e0 3c 19 e8 0e bd 91 79 2e be 79 a3 0b 3d
       0.027419705 -0.034889314 -0.17038561 0.034091447

conv_layers.0.merger_layer.bias f4 [30]
000000 20 39 51 3d ae af 20 3d df dd ff 3d a4 14 2b 3d
       0.05107987 0.03923004 0.124934904 0.04176773
000010 fc f7 7e bd 7f e3 1a 3e 49 74 b7 bd 5f 53 03 3e
       -0.062248215 0.15125845 -0.089577265 0.12824772
000020 e2 98 ff 3d e6 7a cf 3c b7 e7 91 3c ae 7e 40 bd
       0.12480332 0.025327157 0.017810686 -0.04699581
000030 f6 01 3a bd 11 5c fe bc 51 df 2b be 19 2b 71 3d
       -0.045412026 -0.03104976 -0.16784407 0.05887899
000040 16 13 96 3d 83 2f 8d bd e8 3b bb 3d c0 28 5c 3d
       0.07327859 -0.06893828 0.091422856 0.0537498
000050 74 e7 10 be ed 1f fe bd 69 02 3f be 79 f1 8d bd
       -0.14150792 -0.12408433 -0.18653263 -0.06930823
000060 86 3b 95 3c 44 5a 5d 3c d6 f1 fb 3d e5 40 4c be
       0.01821686 0.0135102905 0.12301986 -0.1994663
000070 1d a1 10 3e ac 61 df 3d
       0.1412396 0.10907301
