encoder_state_dict.pth (torch, 7698 bytes, 10 tensors)

conv_layers.0.gatlayer.attn_l f4 [1, 2, 20]
000000 39 08 67 be c9 2e bb be c9 99 89 be cb 7c cd 3e
       -0.2256173 -0.36559132 -0.2687514 0.40134272
000010 01 10 f6 be cc 68 fe 3e 8c b7 69 be 66 67 a7 3e
       -0.48059085 0.4968933 -0.22823924 0.32696074
000020 91 5d 84 bd 1c 21 36 3f c7 08 0b 3f 97 79 e7 be
       -0.06463159 0.7114427 0.5431027 -0.45209953
000030 7f 97 45 be cb 0f be be 3a b5 04 3e 58 af 1d 3e
       -0.19296072 -0.37121424 0.12959757 0.1539892
000040 64 4f b5 be 47 49 d7 bd 70 0f 0d bd 6b 4f 17 3f
       -0.35412133 -0.105120234 -0.03443855 0.5910556
000050 33 eb 84 3e db df 8a be 1e 2b 55 3d e9 fe 01 bd
       0.25960693 -0.27123913 0.052043073 -0.031737242
000060 e6 ee b1 3d ce 81 78 3e c6 74 d1 bd 3e b8 9b 3e
       0.086881444 0.24268267 -0.10227351 0.30414003
000070 81 61 a7 be d1 7c f5 3d 45 f5 0a 3f 88 20 88 be
       -0.32691577 0.119866975 0.542805 -0.2658732
000080 41 ab af bd 93 5a d8 3d 56 85 9a 3e ad 07 81 3e
       -0.08577586 0.10564151 0.30179852 0.2520117
000090 7e 0f 23 be 72 cc d3 3d 0b 70 a0 3e b3 a6 96 bd
       -0.15923879 0.10341729 0.31335482 -0.07356014

conv_layers.0.gatlayer.attn_r f4 [1, 2, 20]
000000 8e c8 32 be 54 57 c5 3d 35 3c 22 3e 82 f7 d8 3d
       -0.17459318 0.09635797 0.1584328 0.10594083
000010 ed 50 8d 3e b9 c4 68 be 3b e5 0b be 4c 09 e1 bc
       0.27600804 -0.22731294 -0.13661663 -0.027470253
000020 f3 70 cb bd 8f 18 8e 3e bd a3 8d bd 05 fd b5 be
       -0.09933653 0.27753112 -0.06915996 -0.355446
000030 0b 18 9e be 16 aa 5c be a3 50 c5 be 97 0a 18 bf
       -0.30877718 -0.21549258 -0.38538083 -0.5939116
000040 9d fc 02 bf b2 86 af bd f1 10 7f 3e f8 ad 0f 3f
       -0.5116671 -0.08570613 0.24908806 0.5612483
000050 d8 8e 8d be 4f b2 e8 bd 5b 8d 1e be 9f 94 a4 3e
       -0.27648044 -0.11362135 -0.1548361 0.3214464
000060 f2 12 37 3e eb 13 1a 3e 6a 62 6c be 24 5e 46 be
       0.17878321 0.1504666 -0.23084417 -0.1937185
000070 46 4a d0 3d db 10 39 bd 91 5e de bd c7 c4 36 3f
       0.101704165 -0.04518209 -0.10857881 0.7139401
000080 4c c0 4b 3e 5d bf 64 3d f2 08 70 3e b5 c6 83 3d
       0.19897574 0.05584656 0.23440912 0.06434385
000090 49 9b 1d bf b9 8f dc be a8 ea c0 3e a8 c6 a1 bd
       -0.6156507 -0.43078402 0.3767903 -0.07899219

conv_layers.0.gatlayer.bias f4 [40]
000000 00 00 00 00 00 00 00 00 00 00 00 00 00 00 00 00
       0.0 0.0 0.0 0.0
000010 00 00 00 00 00 00 00 00 00 00 00 00 00 00 00 00
       0.0 0.0 0.0 0.0
000020 00 00 00 00 00 00 00 00 00 00 00 00 00 00 00 00
       0.0 0.0 0.0 0.0
000030 00 00 00 00 00 00 00 00 00 00 00 00 00 00 00 00
       0.0 0.0 0.0 0.0
000040 00 00 00 00 00 00 00 00 00 00 00 00 00 00 00 00
       0.0 0.0 0.0 0.0
000050 00 00 00 00 00 00 00 00 00 00 00 00 00 00 00 00
       0.0 0.0 0.0 0.0
000060 00 00 00 00 00 00 00 00 00 00 00 00 00 00 00 00
       0.0 0.0 0.0 0.0
000070 00 00 00 00 00 00 00 00 00 00 00 00 00 00 00 00
       0.0 0.0 0.0 0.0
000080 00 00 00 00 00 00 00 00 00 00 00 00 00 00 00 00
       0.0 0.0 0.0 0.0
000090 00 00 00 00 00 00 00 00 00 00 00 00 00 00 00 00
       0.0 0.0 0.0 0.0

conv_layers.0.gatlayer.fc.weight f4 [40, 1]
000000 e4 01 92 bc 1f 51 a8 bd e8 5e 60 bd 01 6c 35 3e
       -0.017823167 -0.082185976 -0.05477801 0.17716981
000010 e4 62 46 bd 55 4f 9f 3e ae 9a ca be b0 5e 8d 3d
       -0.048434153 0.31115213 -0.39571136 0.06902826
000020 93 98 f0 3e e4 ab 85 3f b8 4e 01 3e 8d 13 38 be
       0.46991405 1.0443082 0.12627685 -0.17976208
000030 d2 74 46 bf fb 68 cb bc c0 4e 93 3e 88 14 59 be
       -0.77522004 -0.024830332 0.2877102 -0.21199238
000040 64 1f 58 3d 01 03 ed 3d 79 19 90 3d e2 ff 73 3e
       0.05276431 0.115728386 0.070361085 0.2382808
000050 f6 fe 51 be 4f 09 1d be 6b 53 e5 be be 83 dc 3b
       -0.20507416 -0.15335582 -0.44790205 0.006729572
000060 77 a1 1d be 15 b2 63 be 46 cf 3a bd 22 35 8b be
       -0.15393625 -0.22235902 -0.045607828 -0.27188975
000070 c6 a3 34 bd 20 d0 58 be 54 28 98 3d eb 54 95 3e
       -0.0441015 -0.21173143 0.07429567 0.2916635
000080 c7 cd 25 3d a0 66 82 3e f7 7f ba 3e 34 43 81 3e
       0.040479448 0.25468922 0.36425754 0.25246584
000090 0a 30 85 3d 07 cd b7 bd 40 0f 6e be eb a7 6f 3d
       0.06503303 -0.08974653 -0.23248005 0.05850975

conv_layers.0.gate_fn.weight f4 [2, 66]
000000 b9 07 c1 bd b9 7c df 3d 83 13 c1 ba b7 28 00 bd
       -0.09425301 0.10912461 -0.0014730546 -0.03128883
000010 02 18 99 bd 46 d8 0d bd ba 7b c4 bd 1d 66 90 3c
       -0.07475282 -0.034630083 -0.095939115 0.017626816
000020 aa 87 a7 3d d0 75 47 3d ff 3d 1c 3d 43 d1 ae 3c
       0.08180173 0.04869634 0.03814506 0.021340018
000030 6f 4c 49 3d 34 dd 83 3d 9d 99 27 bd 23 4e cc 3d
       0.04914516 0.064386755 -0.04091798 0.09975841
000040 05 ce c9 3c f8 25 89 3d 8f 42 b8 3d d5 e3 c4 3c
       0.02463437 0.06696695 0.0899707 0.02403442
000050 a9 d9 81 bd ba 0b 89 bd a2 14 e3 3d 1b 94 09 3c
       -0.063403435 -0.0669169 0.1108792 0.0083971275
000060 85 2e 97 bd 98 16 f3 bd 4f d0 8f bc 7d 3d a0 3d
       -0.0738192 -0.11869544 -0.017555384 0.07824228
000070 c9 9e 5b bd d8 20 02 be 4a 8d 0d bd 02 c8 dd bd
       -0.053618226 -0.12707841 -0.034558572 -0.10829164
000080 d9 85 04 3e 8e ba 0a bd f3 89 f6 bc b5 f3 3b bd
       0.12941684 -0.03386932 -0.030095076 -0.045886714
000090 d5 2d 93 3c 3f 0c d1 3d 31 c3 44 3c 66 0f 70 bd
       0.01796619 0.10207414 0.012009428 -0.058608435
0000a0 da 09 a4 3d 35 92 03 3d 01 8c 1b 3d ba 6a c1 3d
       0.080096915 0.032121856 0.037975315 0.094441846
0000b0 71 72 36 bd 0d a0 59 bd 27 61 8c 3d ed 74 ee bd
       -0.044542734 -0.053131152 0.06854468 -0.116433956
0000c0 84 2e bb bd 81 7d cf 3d f7 e4 e9 3c 97 a4 5c 3d
       -0.091397315 0.1013136 0.028551562 0.053867903
0000d0 7c 51 cc 3d 39 e6 70 bc 4a 7e 9b 3d 11 db c1 3d
       0.099764794 -0.014703327 0.07592447 0.09465612
0000e0 dc 6f 70 bd ac aa a5 bc c4 93 d5 3d bd 69 d9 3d
       -0.058700427 -0.020222984 0.10428575 0.10615871
0000f0 44 31 a7 38 16 af 84 3c 55 23 fc 3c d0 b6 b8 3c
       7.972357e-05 0.016196769 0.030778566 0.02254811
000100 ad a3 19 bb 43 3a b1 3d 0a 29 05 bd a5 50 b7 3d
       -0.0023443506 0.08653691 -0.03250984 0.089509286
000110 b6 6b 62 3d 10 da 12 3d 45 f2 8a 3d 36 d1 e6 bd
       0.055278502 0.03585249 0.067844905 -0.112703726
000120 c8 84 06 3a 13 02 14 3d d3 1d 8e 3d 64 44 48 3c
       0.000513148 0.03613479 0.06939282 0.012223337
000130 41 59 fc bd 31 96 c7 3d c2 d5 cf bd 6b 10 4d bd
       -0.12321711 0.097454436 -0.10148193 -0.050064486
000140 85 0c a2 bd 13 bf 87 3d 7e 97 97 bd 8e 61 9f bd
       -0.07912544 0.066282414 -0.07401942 -0.07782279
000150 c8 5f eb bd 1e 45 a4 3b d7 1c 76 bd 1e f6 4f 3d
       -0.11492878 0.005013122 -0.060086098 0.050771825
000160 f5 5f 51 3d c1 98 a2 3d fe 35 df bd 9c af a7 3d
       0.051116902 0.07939292 -0.1089897 0.08187792
000170 de 31 8c 3c 59 07 02 be d2 c9 0b be 45 dc 67 3b
       0.017113622 -0.12698115 -0.13651207 0.0035379094
000180 1c 4c bc bd 1b 7a 90 bd c4 93 73 bd 6a ef b6 3c
       -0.09194204 -0.0705454 -0.059467092 0.022330958
000190 53 8a 2b 3d 0c 5c 8a 3d 52 d5 08 be 55 bc 59 3d
       0.041879963 0.06755838 -0.13362625 0.053158123
0001a0 b0 16 d1 bd 6f 3d 19 be e9 8b bd 3d fc b7 b6 3d
       -0.102094054 -0.14964841 0.09255201 0.08921811
0001b0 8c 7b a0 3c e6 79 69 3c 43 b1 c0 3d f4 fd f0 bc
       0.019590162 0.014250254 0.0940881 -0.02941797
0001c0 5d d9 fa bd 55 92 3e bc 64 a8 b4 bc ea b6 75 3c
       -0.1224849 -0.011631568 -0.022052951 0.014997223
0001d0 a2 8f 83 bd 91 1f 80 bd 7f ca a3 bd b7 6d ae 3d
       -0.0642388 -0.06256021 -0.079976074 0.0851702
0001e0 66 72 94 3d 4d 69 3e bd 8c b2 01 3c de 5d ea 3c
       0.07248382 -0.04648714 0.007916104 0.028609212
0001f0 6c e7 dc bd 29 00 aa bd 17 18 ef bd 33 2a 95 bd
       -0.10786328 -0.08300812 -0.11674517 -0.072834395
000200 88 e3 e1 bd f2 14 98 bc b3 b7 75 bb fe 74 45 bd
       -0.11029726 -0.018564675 -0.0037493526 -0.048207276

conv_layers.0.gate_fn.bias f4 [2]
000000 6e 6e 86 bd 40 56 20 bd
       -0.065640315 -0.039144754

conv_layers.0.gate_m.weight f4 [64, 1]
000000 8e 19 be be 2b 06 09 bc 2d 30 21 be 34 00 3c bf
       -0.37128872 -0.008363287 -0.15741034 -0.7343781
000010 0a 95 d5 3e 20 a0 d7 3e b3 dc 6f 3d ab db 55 bf
       0.4171527 0.42114353 0.058560085 -0.8353831
000020 15 e7 5a bf 9a d2 7d 3e 6d 9f 22 bf f5 8e 9d 3d
       -0.85508853 0.2478737 -0.63524514 0.076932825
000030 f2 e0 2f 3e ee 0e 3b 3f c8 41 62 3d 8e 74 9f bc
       0.17175654 0.73069656 0.055238515 -0.019464757
000040 be 64 4d bf 74 ff 9e 3e 98 54 23 bf 97 a0 ee be
       -0.80231845 0.3105427 -0.63800955 -0.46606895
000050 f9 c1 42 3f d9 1c f8 3e 19 d1 df be e4 85 58 3f
       0.7607723 0.4845951 -0.43714216 0.845793
000060 cb 66 32 3f 53 01 b3 bd 02 55 1a 3f 0d df 8e be
       0.696881 -0.08740487 0.6028596 -0.2790455
000070 2d 4b b9 3d 62 04 e3 bd 85 57 45 be c5 cc 0e bf
       0.09047542 -0.1108482 -0.19271667 -0.55781204
000080 29 bb a6 be bd 48 54 bd 14 50 26 bf bb 85 58 bf
       -0.32564667 -0.05182718 -0.6496594 -0.84579057
000090 75 24 0e bf 95 69 b2 bd ec 66 44 3c 9c 48 24 bf
       -0.5552438 -0.087115444 0.011987429 -0.64173293
0000a0 33 8d f3 3e 87 94 13 bf 0f 81 15 3f 69 61 c2 be
       0.47568664 -0.5764851 0.5840005 -0.37964943
0000b0 ed 5f c0 be f3 7d d9 bb e0 dd df 3e 3c 5e 02 bf
       -0.37573186 -0.006637329 0.43723965 -0.5092504
0000c0 f3 88 65 3f 2e 2d 65 bf b5 e4 f3 3e 9c 21 06 3f
       0.8966209 -0.89522064 0.47635427 0.52395034
0000d0 fc 97 70 3f 52 75 98 be 66 48 70 3f c1 b0 26 bf
       0.9398191 -0.29777008 0.9386047 -0.65113455
0000e0 5a b5 df be c9 f7 22 3e b5 fe d3 bd ff e6 36 3f
       -0.43693048 0.15914835 -0.10351316 0.7144622
0000f0 62 f0 74 bf 44 b7 6a bf 7f 17 5b 3f bd e9 a8 3d
       -0.95679295 -0.9168589 0.8558273 0.08247707

conv_layers.0.gate_m.bias f4 [64]
000000 c6 94 20 bf e2 11 53 bf d6 cd 7a be ea a6 17 3f
       -0.6272701 -0.8244916 -0.24492583 0.59239066
000010 ad 58 53 3f b8 3c 48 bf df fd 33 bf 8f 66 45 bf
       0.82557184 -0.7821765 -0.7030925 -0.77109617
000020 8e f7 61 bd 01 63 2d 3e 29 8b 9b be ae 78 52 3f
       -0.055167727 0.16932298 -0.30379608 0.8221539
000030 00 e3 d5 be b8 ac 19 3c c9 4d 56 be 36 21 ee be
       -0.4177475 0.009379558 -0.2092811 -0.46509713
000040 10 b5 03 3f a5 0d 0a 3f 57 d1 36 3f 9e 8c 82 3e
       0.51448154 0.5392707 0.7141318 0.25497907
000050 55 7d a5 3e 79 cd bc 3e 01 2f 56 bf 44 01 78 bf
       0.32322183 0.36875513 -0.8366547 -0.9687693
000060 89 fb 28 bd 83 a7 7f 3f 1c ee 64 3f 85 48 e8 be
       -0.041255508 0.9986498 0.89425826 -0.45367828
000070 30 93 06 bf 81 8e 10 be 6c 7f 43 3e d7 e3 62 3e
       -0.5256834 -0.14116861 0.19091576 0.22157227
000080 7d 92 2b 3f 45 e6 63 bf 3e 39 a0 3e fd 37 9c 3e
       0.670204 -0.8902324 0.31293672 0.30511466
000090 60 88 ff be 93 29 2e 3f 06 d7 36 bf ce fd 46 3f
       -0.49908733 0.6803219 -0.7142185 0.77731025
0000a0 1e 8a e8 3d d5 06 74 3e bc ab 47 3f 01 ad 80 3f
       0.11354469 0.23830731 0.7799642 1.0052797
0000b0 5e 48 53 bf 7b e7 ad be 1d 9c 8f 3e e8 77 06 be
       -0.825323 -0.33965668 0.28048792 -0.13131678
0000c0 f7 c7 d3 be 38 ea 79 3f 7b 12 75 3f 4d 09 02 3f
       -0.413635 0.97623014 0.95731324 0.5079544
0000d0 b2 82 ca be ff 03 4d 3f f4 e6 5f 3f 15 33 0f bf
       -0.39552838 0.8008422 0.8746178 -0.5593732
0000e0 ed c5 e2 be 22 5b ee 3d 7e ef ad be 5c 4c 2b 3f
       -0.4429163 0.11638476 -0.3397178 0.6691339
0000f0 01 0a 36 3d 3e 2c 86 be 8b 18 21 bf 9e 8a bf be
       0.044443134 -0.2620563 -0.62928075 -0.37410444

conv_layers.0.merger_layer.weight f4 [20, 21]
000000 8a 44 8c bc a2 01 3b be ea f2 f4 bd 24 d4 12 be
       -0.017122526 -0.18262342 -0.11960395 -0.14338738
000010 3a ce 7d 3d 95 f0 28 be 0b 94 97 3d e0 28 21 be
       0.06196425 -0.16498025 0.07401284 -0.15738249
000020 9e 6b 4e be f7 66 a9 3d 73 d8 24 bd 8d c7 1a be
       -0.2015824 0.08271592 -0.040245485 -0.15115185
000030 67 4d 3c be 8a 89 21 3e f5 4e fc bd 08 87 3b 3e
       -0.18388902 0.15775123 -0.12319747 0.18313229
000040 f8 7a 0a 3e e2 4e 1e be c7 0c 2f 3e 96 14 09 be
       0.13523471 -0.15459779 0.17094718 -0.13386759
000050 13 24 a6 bc d2 13 d4 3c 03 91 04 3d a2 93 37 3d
       -0.020280873 0.025888357 0.032364856 0.044818528
000060 a4 39 35 bd 10 88 11 be d7 ef 7d be e4 9d 7a be
       -0.044244424 -0.1421206 -0.24798523 -0.24474293
000070 35 96 1f 3e a1 3b 4e be 19 49 a9 bd 9c 30 19 bd
       0.15584643 -0.20139934 -0.082658954 -0.037399873
000080 f9 7c 7e 3d ee c2 19 be 2f b7 4e be 2a 1c 7b 3d
       0.062130902 -0.15015766 -0.20187066 0.061306156
000090 d0 d8 0d 3c 69 fa 18 3e f6 8c 5d bd c6 cc 81 bd
       0.008657649 0.14939274 -0.05408951 -0.063378856
0000a0 25 c7 47 be e4 bf 30 3e c6 dc bc bb 25 03 77 3d
       -0.19509561 0.172607 -0.005763623 0.060305733
0000b0 9a d8 4d bd a6 73 d1 bd 7e 0d 69 3c e6 c0 0f 3e
       -0.050255395 -0.10227136 0.014224408 0.14038429
0000c0 d2 8f 2a bd aa 17 40 be 47 cf 62 be 7f ad 02 3e
       -0.041641064 -0.18759027 -0.22149383 0.12761496
0000d0 d0 50 4f be 2b dd 1d 3e 6d 68 26 3e 59 ff d9 bd
       -0.20245671 0.154164 0.16250773 -0.10644407
0000e0 28 2d 0c 3e 10 6f 99 bd ca 05 f4 bd 8a 44 20 bd
       0.136891 -0.074918866 -0.11915167 -0.039127864
0000f0 cf 96 59 be 74 e2 6e 3b 36 fc 19 3e 12 4d 4d bd
       -0.21248935 0.0036450895 0.15037617 -0.050122328
000100 9a ff e8 3b 6d a2 64 3c 2d ff ee bd 6a 14 1f be
       0.007110548 0.013954741 -0.11669765 -0.15535131
000110 ff 5b 27 be 62 8e 27 be cf 66 8a bd 09 80 83 bc
       -0.16343687 -0.16362908 -0.067578904 -0.016052263
000120 6c 8e 38 be 8f 25 32 3e 36 5e 0e be 3b 45 61 3d
       -0.1802308 0.1739714 -0.13903126 0.054997664
000130 a4 53 cf bc bf 98 5a 3e 3e ad 75 3c 74 2f 78 3d
       -0.025308438 0.2134733 0.014994917 0.06059213
000140 b3 aa ef bd 01 4e a5 3d fc 47 c4 3d 76 2d 21 3c
       -0.1170248 0.08071519 0.095840424 0.009837499
000150 f2 44 45 bb 1d 13 51 3e db 03 e5 bd 7f 73 42 be
       -0.003010091 0.20417447 -0.11182376 -0.18989371
000160 a0 77 1c be f7 a4 44 3e ff 54 38 be fd 3b f6 3d
       -0.15280008 0.19203554 -0.18001173 0.120231606
000170 6d cc c0 3d a4 17 1c 3e ee e0 93 bd 3e 43 c5 bd
       0.09413991 0.15243393 -0.07220636 -0.09631966
000180 67 53 80 3d b3 1d 8c bd c3 4a 81 bc cb 1b a2 3c
       0.06265908 -0.06841602 -0.01578272 0.019788643
000190 f5 41 22 be 4f 88 6d 3d a5 84 22 3e e1 4b a5 b8
       -0.15845473 0.057991322 0.15870912 -7.881947e-05
0001a0 3b 8f a5 3c 8e 51 43 3c df 2c 58 bd 18 c1 2d 3e
       0.0202099 0.0119213 -0.052777167 0.1696819
0001b0 91 32 80 3e 37 14 5a be 89 c3 11 bc f3 dd ea 3d
       0.2503858 -0.21296774 -0.008896717 0.11468115
0001c0 59 77 96 3c 8b b9 00 be 74 80 5f 3d 76 c8 82 bd
       0.018367456 -0.12570779 0.05456586 -0.06385891
0001d0 88 61 0f 3e a4 36 3c 3e ae 45 27 3e 37 64 9d bd
       0.14002049 0.18380219 0.16335174 -0.0768513
0001e0 d2 86 2a 3e 10 19 bd 3d a8 1b 19 3e e1 2f 10 3d
       0.16652992 0.09233296 0.14951956 0.03520191
0001f0 35 e4 93 bd ae 90 dd bc d6 35 c0 ba 08 e2 c1 3e
       -0.072212614 -0.027046528 -0.0014664482 0.3786776
000200 86 f5 13 3e 12 d1 b2 3d 86 44 2d 3e c5 51 29 be
       0.14449129 0.08731283 0.16920671 -0.16535099
000210 a5 29 3b 3e 2a bb 8e 3d 77 85 d3 bd 98 62 fd bd
       0.18277605 0.069692925 -0.10328191 -0.12372321
000220 e3 a5 a4 3d 43 0d 1d 3e 3a b1 01 3e 07 a9 3e 3e
       0.08039453 0.1533709 0.12665263 0.18619166
000230 6f 14 94 3d 2b c7 b8 3b f4 81 f6 3b 24 41 19 3e
       0.0723046 0.005638977 0.007522816 0.14966255
000240 2d 17 e3 bb df 61 50 be 40 5c cc 3a 5b 16 a9 bb
       -0.006930253 -0.20349835 0.0015591457 -0.0051601357
000250 78 ed 1d 3e 1c db 2a 3e ce d4 8b 3d 94 80 35 be
       0.15422618 0.16685146 0.06827699 -0.1772483
000260 78 ff fb bd 5f 0e ed 3d 48 35 db 3d 09 6f 24 3e
       -0.12304586 0.11575007 0.10703522 0.16057982
000270 82 e0 8f 3c 97 3b cc bd 6a 49 79 3d 92 3a 31 3e
       0.017563108 -0.09972303 0.06086103 0.17307499
000280 1c 57 87 3c 12 99 0e be 2e a5 bb bd 31 16 38 be
       0.01652103 -0.13925579 -0.09162365 -0.17977215
000290 70 bd 47 3e 59 14 c9 3d 88 ef 38 be ea b2 ad bb
       0.19505858 0.09818334 -0.18060124 -0.0053008692
0002a0 e9 5a 15 bd 45 7e cc 3d 40 80 54 bd b3 0e 8c bd
       -0.03646365 0.099850215 -0.05188012 -0.06838741
0002b0 d4 cb 70 3d ff f1 05 bc 30 1f 5b 3e 4c 09 45 be
       0.058788136 -0.008175372 0.21398616 -0.19241828
0002c0 c4 8d 2a 3e 93 e3 48 bd 93 ca e2 bd ba 23 1d 3e
       0.16655642 -0.049045157 -0.11073794 0.1534566
0002d0 27 a0 11 3d 19 ee 0b 3e 15 26 f7 bd 75 c9 2e be
       0.035553124 0.13665046 -0.120678104 -0.17069037
0002e0 95 c6 06 3e 77 c2 2f be da 64 21 be 35 fb ab 3c
       0.1316169 -0.17164026 -0.15761128 0.020993808
0002f0 62 7d 0a be f4 5e 57 3c a2 ea 7f 3d 21 33 4b 3e
       -0.13524392 0.013145197 0.062479623 0.19843723
000300 c3 96 ff 3d eb 7a 6b bd 33 cf 3a bd 85 23 98 bd
       0.124799274 -0.05749027 -0.045607757 -0.0742865
000310 65 eb 02 3e f5 05 0a bd cf bf cc bd 3c c9 c3 3c
       0.12785108 -0.033697087 -0.09997522 0.023899667
000320 43 1d d5 3d 66 65 09 be 03 5c 0d be fa 85 a0 bd
       0.10405972 -0.13417587 -0.13804631 -0.07838054
000330 71 34 87 3d a3 a9 83 3d c7 39 c3 3d 20 aa 09 be
       0.06601799 0.0642884 0.095325045 -0.13443804
000340 66 b5 3c 3d dd 12 b0 bd 50 22 1f bc c3 40 cf bd
       0.046071433 -0.08597348 -0.009712771 -0.10119774
000350 4e 97 62 3a 81 94 65 bd 44 2e a2 3d 3d 68 5a bc
       0.0008643762 -0.056049827 0.07918981 -0.013330516
000360 7b 54 d2 3c 20 d7 0b 3e d9 66 cc bd aa b1 c7 3d
       0.025675049 0.13656282 -0.09980554 0.097506836
000370 e5 4d 07 be 59 99 f5 bd 1e 93 86 bd 85 10 5f 3e
       -0.13213308 -0.11992139 -0.06571029 0.21783645
000380 e3 50 21 bd 51 2e a5 bc cb 6e ca bd 09 5b 06 3d
       -0.03938378 -0.020163687 -0.09884413 0.03280166
000390 b8 52 56 3d 05 84 80 3d ac 74 1b be 0a 3d 3c 3c
       0.05232498 0.06275181 -0.15181226 0.011489162
0003a0 44 3c 83 3d 71 2d 64 3e 32 f8 3d bc 7c dc a2 3d
       0.06407979 0.2228296 -0.011594819 0.0795221
0003b0 19 82 1c 3c 55 64 99 3d bb 14 29 3e 34 04 f4 bd
       0.009552502 0.0748984 0.16511814 -0.11914864
0003c0 62 75 e9 3d 36 37 bd 3d b0 34 53 3e ee a7 73 bd
       0.11399342 0.09239046 0.20625567 -0.059486322
0003d0 ab 62 43 3e 42 58 04 be 94 b2 b3 3d 15 33 8d bd
       0.19080608 -0.12924293 0.087742954 -0.06894509
0003e0 8c 74 29 be a7 46 35 be 70 5e 17 3e 40 cc ef bc
       -0.16548365 -0.17702733 0.14782119 -0.029272199
0003f0 a8 5d cf 3d 15 05 0b 3e 3d c0 38 3e b3 23 57 3e
       0.101252854 0.13576157 0.18042083 0.21009712

conv_layers.0.merger_layer.bias f4 [20]
000000 d6 5f 0e 3f 77 76 85 3e 71 55 0a 3e 49 bd a6 3c
       0.55614984 0.26066944 0.13509156 0.02035393
000010 5d 19 4a bd 72 95 12 3d 2a 25 27 be 70 bc fa bd
       -0.049340595 0.035787053 -0.1632277 -0.12242973
000020 7e f8 20 be 35 05 c5 be 60 3f b9 3d 5a f8 a1 be
       -0.15719792 -0.38480535 0.09045291 -0.3163479
000030 55 da b8 be 0b 03 c1 3d 5e 1e 1e be 14 73 12 3e
       -0.36104074 0.094244085 -0.15441272 0.14301711
000040 26 4a 8e be c4 3a 21 3e f8 02 8b be 02 6c c8 be
       -0.27790946 0.15745074 -0.27150702 -0.39144903
