encoder_state_dict.pth (torch, 10706 bytes, 10 tensors)

conv_layers.0.gatlayer.attn_l f4 [1, 2, 30]
0	0x3e735c89	0.23765768
1	0xbd8c7748	-0.068586886
2	0xbe6c9ded	-0.23107119
3	0x3c97c981	0.018528702
4	0xbe773660	-0.24141836
5	0xbe017f9a	-0.12646332
6	0xbda7b678	-0.081891
7	0x3d1b7581	0.037953857
8	0x3d704677	0.05866095
9	0xbd4dc947	-0.05024078
10	0xbdb682bb	-0.089116536
11	0x3dd5b577	0.10435002
12	0xbe25d527	-0.16194592
13	0x3ec2bb91	0.38033727
14	0xbdfe904a	-0.12429865
15	0xbc58192c	-0.013189595
16	0xbeb715ab	-0.3575872
17	0x3eb38428	0.35061765
18	0xbe2314d2	-0.15925911
19	0xbc18f120	-0.009334832
20	0xbd8c13f9	-0.06839747
21	0x3ca7761a	0.020442057
22	0xbdc638a0	-0.09678769
23	0x3da72370	0.08161056
24	0xbee037d2	-0.43792588
25	0x3e4ac7cf	0.19802783
26	0xbd3c74a2	-0.046009667
27	0xbb9a7929	-0.0047141504
28	0x3e5bf6c2	0.2148085
29	0xbd4a28d3	-0.04935534
30	0xbd88b49d	-0.06675074
31	0xbe636ca7	-0.22209416
32	0x3e526ec5	0.20550068
33	0xbb4bc034	-0.0031089904
34	0xbe390107	-0.18066798
35	0xbe68a815	-0.22720368
36	0xbe56c496	-0.20973429
37	0xbdd8b416	-0.10581224
38	0xbe26c3e1	-0.1628566
39	0xbe51824c	-0.2045986
40	0xbd08194d	-0.033227254
41	0x3ef67bde	0.48141378
42	0xbe8294a1	-0.2550402
43	0x3d0d294f	0.034463223
44	0xbd680b22	-0.056651242
45	0xbe07aa65	-0.13248594
46	0x3e3e1f45	0.18566616
47	0x3d7c88de	0.061653964
48	0xbdba6e54	-0.09103075
49	0x3ef235bb	0.47306618
50	0xbd961861	-0.07328869
51	0x3d401b35	0.046900947
52	0xbdffaab8	-0.12483734
53	0xbdda34ad	-0.10654578
54	0xbe8b145f	-0.2716398
55	0xbed6e8a7	-0.41974375
56	0x3df10ee3	0.117704175
57	0xbde9e64d	-0.114208795
58	0x3e048e42	0.12944892
59	0x3ef3697c	0.47541416

conv_layers.0.gatlayer.attn_r f4 [1, 2, 30]
0	0x3e8e08bb	0.27741036
1	0x3e5bfa69	0.21482243
2	0xbe868c5c	-0.2627896
3	0x3e5d4161	0.21606971
4	0x3da5c6a5	0.08094529
5	0x3eca73f7	0.395416
6	0xbd89fb7b	-0.06737419
7	0x3de36dcc	0.111049265
8	0xbaefbd53	-0.0018290676
9	0xbbd8a7f1	-0.006611817
10	0xbe0d3a9c	-0.13791889
11	0x3c97569f	0.018473921
12	0xbdbc9cba	-0.09209581
13	0xbd0eeb49	-0.034892354
14	0xbd8edcc7	-0.06975704
15	0x3deec57e	0.116587624
16	0x3e9f1fb0	0.31078863
17	0x3eb0199b	0.34394535
18	0xbe9fd07b	-0.31213745
19	0xbe884d8e	-0.2662167
20	0xbe0d8837	-0.13821493
21	0xbef11740	-0.4708805
22	0x3dc2f83d	0.09520004
23	0x3e1c71cb	0.15277784
24	0xbe89fd75	-0.26951185
25	0xbe83387b	-0.2562903
26	0xbe05c3f3	-0.1306303
27	0xbcdfd461	-0.02732295
28	0xbe58377a	-0.21114913
29	0xbe7cc49e	-0.24684379
30	0x3c7c9bca	0.015418002
31	0xbe81affd	-0.2532958
32	0x3dcad7cf	0.099044435
33	0x3d34863e	0.044073336
34	0xbcfdf113	-0.030998742
35	0x3d57fa46	0.052728914
36	0x3dd14418	0.10218066
37	0x3e43139e	0.19050452
38	0xb93613d9	-0.00017364266
39	0x3dfd95c3	0.123820804
40	0xbc92b8f7	-0.017910464
41	0xbbb7682d	-0.0055971355
42	0x3e7e91e2	0.24860337
43	0xbdf98f70	-0.12185562
44	0xbe342e2d	-0.1759574
45	0xbe066d7f	-0.13127707
46	0x3cb2975f	0.021800695
47	0x3ed014a2	0.40640742
48	0x3e736817	0.23770176
49	0xbdb50f6a	-0.088408306
50	0x3dc0f7fc	0.09422299
51	0xbd42c5f7	-0.047552075
52	0x3e1cc091	0.15307833
53	0x3f04cb34	0.51872563
54	0xbe0d3604	-0.13790137
55	0xbe411d62	-0.18858865
56	0x3b48d11f	0.0030642224
57	0x3d5622c4	0.05227925
58	0xbdd65c53	-0.10466828
59	0xbe433058	-0.1906141

conv_layers.0.gatlayer.bias f4 [60]
0	0x00000000	0.0
1	0x00000000	0.0
2	0x00000000	0.0
3	0x00000000	0.0
4	0x00000000	0.0
5	0x00000000	0.0
6	0x00000000	0.0
7	0x00000000	0.0
8	0x00000000	0.0
9	0x00000000	0.0
10	0x00000000	0.0
11	0x00000000	0.0
12	0x00000000	0.0
13	0x00000000	0.0
14	0x00000000	0.0
15	0x00000000	0.0
16	0x00000000	0.0
17	0x00000000	0.0
18	0x00000000	0.0
19	0x00000000	0.0
20	0x00000000	0.0
21	0x00000000	0.0
22	0x00000000	0.0
23	0x00000000	0.0
24	0x00000000	0.0
25	0x00000000	0.0
26	0x00000000	0.0
27	0x00000000	0.0
28	0x00000000	0.0
29	0x00000000	0.0
30	0x00000000	0.0
31	0x00000000	0.0
32	0x00000000	0.0
33	0x00000000	0.0
34	0x00000000	0.0
35	0x00000000	0.0
36	0x00000000	0.0
37	0x00000000	0.0
38	0x00000000	0.0
39	0x00000000	0.0
40	0x00000000	0.0
41	0x00000000	0.0
42	0x00000000	0.0
43	0x00000000	0.0
44	0x00000000	0.0
45	0x00000000	0.0
46	0x00000000	0.0
47	0x00000000	0.0
48	0x00000000	0.0
49	0x00000000	0.0
50	0x00000000	0.0
51	0x00000000	0.0
52	0x00000000	0.0
53	0x00000000	0.0
54	0x00000000	0.0
55	0x00000000	0.0
56	0x00000000	0.0
57	0x00000000	0.0
58	0x00000000	0.0
59	0x00000000	0.0

conv_layers.0.gatlayer.fc.weight f4 [60, 2]
0	0x3ec65d26	0.38742942
1	0x3e5c9cf3	0.21544246
2	0xbde417a2	-0.1113732
3	0xbed16ed4	-0.40904868
4	0xbdf9b678	-0.12193006
5	0x3e801d8c	0.25022542
6	0xbe915477	-0.28384754
7	0xbe95962d	-0.29216138
8	0xbe030d43	-0.12798028
9	0xbda5ef3b	-0.0810227
10	0x3e1f757f	0.15572165
11	0xbe2005d7	-0.15627228
12	0xbdef8718	-0.11695689
13	0xbeb513a0	-0.35366535
14	0x3e6f1dc6	0.23351201
15	0x3d6306a1	0.055426244
16	0x3db92301	0.090398796
17	0x3dd2fe37	0.10302394
18	0x3c8f26f9	0.017474638
19	0xbc63b737	-0.013898662
20	0xbedb1c48	-0.42795014
21	0xbe989f51	-0.2980905
22	0x3ef7df92	0.48412758
23	0x3e6f4278	0.233652
24	0xbe707329	-0.2348143
25	0xbe73f2ac	-0.2382304
26	0xbe1aac89	-0.1510488
27	0xbe5dc29e	-0.21656272
28	0x3e51686f	0.20449995
29	0xbe4cc9d5	-0.19998868
30	0xbea7d6ab	-0.32780966
31	0x3dfbbb0f	0.12291538
32	0xbe53605c	-0.20642227
33	0xbdac20f3	-0.08404722
34	0x3e37c45b	0.17945997
35	0x3f159302	0.5842744
36	0x3ce49ced	0.02790686
37	0x3e5d46d4	0.2160905
38	0x3e964f6e	0.29357475
39	0xbea56f11	-0.323113
40	0xbb92efed	-0.004484168
41	0xbe7b3096	-0.24530253
42	0xbeb61125	-0.35559955
43	0xbe62916b	-0.22125785
44	0x3dc27f3e	0.09496926
45	0xbe3a201f	-0.18176316
46	0xbd325572	-0.04353852
47	0x3e8a31e3	0.26991186
48	0xbe38ba0c	-0.18039721
49	0x3dcd87d8	0.10035676
50	0xbe22d93f	-0.15903185
51	0x3da959d4	0.082690865
52	0x3ed68a07	0.41902182
53	0x3e875da8	0.26438642
54	0x3e162494	0.14662391
55	0xbd8de41b	-0.06928273
56	0xbdff7bb5	-0.12474767
57	0x3e7e783f	0.24850558
58	0xbd77166c	-0.060324118
59	0x3ede18b2	0.43378216
60	0x3e727b4a	0.23679844
61	0xbdef2fa3	-0.11679008
62	0xbe25b719	-0.16183127
63	0x3ebad043	0.36487016
64	0x3e7dd444	0.24788004
65	0xbe57c2b2	-0.21070364
66	0x3d803a01	0.06261063
67	0xbf0b7ae5	-0.544844
68	0x3e322437	0.17396627
69	0x3ece2812	0.40264946
70	0xbea7208a	-0.32642013
71	0x3ec11d33	0.3771759
72	0x3f1c7347	0.611134
73	0x3e545050	0.20733762
74	0xbe7a030a	-0.24415222
75	0xbe6828de	-0.2267184
76	0x3e266478	0.16249263
77	0x3ec0b976	0.37641495
78	0x3e5e71b3	0.2172306
79	0x3e800fb9	0.25011995
80	0x3f23b11d	0.6394213
81	0x3d771220	0.06032002
82	0x3ea9f152	0.33191925
83	0x3e7106a5	0.23537691
84	0xbde1a8e9	-0.11018545
85	0x3d6dd555	0.058064777
86	0xbf047c48	-0.5175214
87	0xbeaeb2f2	-0.341209
88	0xbecc16f1	-0.39861253
89	0xbe5e0ead	-0.21685286
90	0xbd7eaeb3	-0.062178325
91	0xbe9f6d42	-0.31138045
92	0xbe8d1d8d	-0.27561608
93	0x3e8b9ee4	0.2726966
94	0xbea32d8a	-0.3187068
95	0x3e5b46a8	0.21413672
96	0x3e94c417	0.29055855
97	0xbe40189b	-0.18759386
98	0x3c0876d8	0.008329116
99	0xbe661656	-0.22469458
100	0x3dfc58ca	0.12321623
101	0xbec6e254	-0.3884455
102	0xbe240070	-0.16015792
103	0x3de1e64a	0.11030252
104	0xbd37bb15	-0.04485615
105	0x3ef41aba	0.4767664
106	0x3ea6ff0d	0.32616463
107	0xbe769d91	-0.24083544
108	0x3e8014be	0.25015825
109	0x3e2dc62d	0.1697013
110	0xbe393018	-0.18084753
111	0xbe1d6ecc	-0.15374297
112	0xbe07e3bd	-0.13270469
113	0xbe13032e	-0.14356682
114	0xbdf0749a	-0.1174099
115	0xbd40d931	-0.04708213
116	0xbe309934	-0.17245942
117	0xbe85ed50	-0.26157618
118	0x3e194ff6	0.14971909
119	0xbeb79e35	-0.3586289

conv_layers.0.gate_fn.weight f4 [2, 68]
0	0xbd330c14	-0.04371269
1	0x3d75d826	0.06002059
2	0xbdc9265f	-0.09821772
3	0xbde20636	-0.11036341
4	0x3d9bfd80	0.07616711
5	0x3d27df15	0.040984232
6	0xbd333235	-0.043749053
7	0x3c5adbfc	0.013358112
8	0xbd6b7adf	-0.057490226
9	0xbdc749d6	-0.0973088
10	0xbd1c8717	-0.03821477
11	0xbdfd91e6	-0.123813435
12	0x3d56f459	0.05247912
13	0xbdb02f0b	-0.08602723
14	0xbd0542a6	-0.032534264
15	0x3dd55b0d	0.10417757
16	0xbd0542c0	-0.03253436
17	0xbddcf266	-0.10788421
18	0xbdfa17fa	-0.122116044
19	0xbd08d0ec	-0.03340237
20	0x3d099c0e	0.03359609
21	0xbdecce8c	-0.11562833
22	0xbb601093	-0.0034189567
23	0x3d888e07	0.066677146
24	0x3e00e546	0.12587461
25	0x3de886d5	0.11353842
26	0xbd8e2375	-0.06940357
27	0x3d2f8dd8	0.042859882
28	0xbdf83fd2	-0.12121548
29	0xbdea3576	-0.11435978
30	0xbd8c6c9d	-0.06856654
31	0x3dd132fc	0.102148026
32	0xbd870a7f	-0.06593799
33	0xbd399079	-0.045303795
34	0xbde612b7	-0.11234038
35	0x3d9f4b1b	0.07777997
36	0x3db861dc	0.0900304
37	0xbd145521	-0.036213998
38	0x3a88d9d9	0.00104409
39	0x3d4dafcb	0.050216477
40	0xbdd895dd	-0.10575459
41	0x3ca54b45	0.020177493
42	0x3d4cdd49	0.05001572
43	0x3de9984f	0.11406004
44	0xbdecdf69	-0.115660496
45	0x3d4ed35d	0.05049454
46	0xbdc05620	-0.09391427
47	0x3c56ef54	0.013118584
48	0xbdf703a2	-0.1206124
49	0xbdad73a7	-0.084693246
50	0x3d7dd2cd	0.061968613
51	0x3c579e49	0.013160297
52	0xbcc651fe	-0.024209019
53	0x3d82342e	0.06357609
54	0x3de4e06d	0.11175618
55	0x3dc2ec0b	0.09517678
56	0x3da9ab36	0.08284609
57	0x3c88c44e	0.016695168
58	0xbcfe4f10	-0.03104356
59	0x3d2ef4fa	0.042714097
60	0xbd34645a	-0.044041015
61	0xbca53df9	-0.020171152
62	0x3d78be2b	0.060728233
63	0x3be2adfd	0.0069177137
64	0xbcba7e78	-0.022765383
65	0xbb803bb3	-0.0039133667
66	0xbda0067f	-0.07813739
67	0xbd0148b3	-0.031563472
68	0xbd9d9431	-0.07694281
69	0xbdb7eb81	-0.08980466
70	0xbd3c280c	-0.04593663
71	0x3c92715d	0.017876321
72	0x3dca4ae9	0.09877569
73	0x3d2e6cfb	0.0425844
74	0xbd972284	-0.0737963
75	0xbd656946	-0.0560086
76	0x3daa6bc0	0.08321333
77	0xbdddc36d	-0.1082829
78	0x3cf65eef	0.030074565
79	0xbd06dda0	-0.0329262
80	0xbdb4ceb7	-0.0882849
81	0x3d8b2fc2	0.067962185
82	0xbc84050f	-0.016115693
83	0xbd63d988	-0.055627376
84	0xbd18ed6d	-0.037335802
85	0x3caa7cb4	0.020811416
86	0xbde67a39	-0.11253781
87	0x3be60981	0.007020176
88	0xbd08423e	-0.0332663
89	0x3d8c4871	0.068497546
90	0x3ba996b7	0.0051754373
91	0x3da08188	0.07837206
92	0xbdd7e357	-0.105414085
93	0xbd95bf8a	-0.07311924
94	0xbccdf1fc	-0.025139801
95	0xbcb21c50	-0.021742016
96	0xbd1d26b0	-0.038366973
97	0x3d8a2d42	0.067469135
98	0x3e0034fb	0.1252021
99	0x3dda6843	0.106644176
100	0xbd013d55	-0.03155263
101	0xbc85f43f	-0.016351817
102	0xbd60d9cc	-0.054895207
103	0x3c411ddd	0.011786905
104	0x3da4626f	0.08026587
105	0xbd3981f1	-0.045289937
106	0x3d9359e7	0.07194882
107	0xbda925b5	-0.08259145
108	0xbc8b44a8	-0.017000511
109	0xbda90a14	-0.082538754
110	0x3db42c6e	0.08797537
111	0xbd30ee4e	-0.043196015
112	0x3dd629a3	0.1045716
113	0x3de68fe2	0.11257912
114	0xbd62dc71	-0.05538601
115	0x3ca269ed	0.0198259
116	0xbd7f676d	-0.062354494
117	0x3cc31e91	0.023818286
118	0xbda3fcfb	-0.080072366
119	0x3da1608c	0.07879743
120	0x3d87b513	0.06626334
121	0x3c886da9	0.016653853
122	0x3d409eec	0.04702656
123	0x3d641199	0.055680845
124	0x3e082be4	0.13297993
125	0xbcdad37e	-0.026712175
126	0xbd82485c	-0.06361458
127	0xbd54c1cc	-0.05194263
128	0xbd67ec8c	-0.056622073
129	0xbd2edb8b	-0.04268984
130	0xbdc3c9aa	-0.09559949
131	0x3cc543b9	0.024080144
132	0xbd9b285b	-0.075760566
133	0xbcadc6c3	-0.021212941
134	0x3b41c9dd	0.0029569783
135	0x3e08863c	0.13332456

conv_layers.0.gate_fn.bias f4 [2]
0	0xbd07e455	-0.03317674
1	0x3db6f208	0.089328825

conv_layers.0.gate_m.weight f4 [64, 2]
0	0x3cc8f8ff	0.024532793
1	0xbef122a2	-0.47096735
2	0xbf1ba1c9	-0.6079374
3	0x3f092d11	0.5358439
4	0x3e2cc602	0.16872409
5	0xbdff0875	-0.12452785
6	0x3ee55dea	0.44798213
7	0xbe258ace	-0.16166231
8	0xbe844e91	-0.2584119
9	0xbeff57e8	-0.49871755
10	0xbdcb578b	-0.09928807
11	0x3befb6ef	0.0073155086
12	0xbd89f477	-0.06736081
13	0x3ec13a72	0.37739903
14	0x3eb35969	0.35029152
15	0x3f0a2228	0.5395837
16	0xbeba7b7c	-0.36422336
17	0xbe19ae18	-0.15007818
18	0xbdf6f98d	-0.12059317
19	0xbe3bd8f5	-0.18344481
20	0x3e9fe1af	0.3122687
21	0x3f16d613	0.589204
22	0xbe059cbf	-0.13048075
23	0x3f2ebe0c	0.6825874
24	0x3f0a5c6a	0.5404726
25	0x3f08c73c	0.5342901
26	0xbeba046d	-0.36331502
27	0xbeef7de5	-0.46775737
28	0xbf0946bb	-0.5362355
29	0x3c86ee14	0.016470946
30	0x3ef2c508	0.47415948
31	0x3e763892	0.24045017
32	0xbf04748a	-0.51740324
33	0xbf1b66a6	-0.60703504
34	0xbe40ed5e	-0.18840548
35	0xbf1a6449	-0.60309273
36	0xbf04d7bb	-0.5189168
37	0x3d93f0ad	0.0722364
38	0x3e19ccdd	0.15019555
39	0xbe64b891	-0.22336031
40	0xbe8b30a2	-0.2718554
41	0xbed17eb0	-0.40916967
42	0xbf3089ee	-0.68960464
43	0xbb76a627	-0.0037635656
44	0x3e896e4a	0.26841956
45	0xbe070ce5	-0.13188513
46	0xbedc74e4	-0.4305793
47	0x3edb6f09	0.4285815
48	0x3e09210d	0.13391514
49	0x3f1c9fac	0.6118114
50	0xbf002f3e	-0.50072086
51	0x3e6b2bb1	0.22965886
52	0xbf227963	-0.6346647
53	0x3efe6d95	0.4969298
54	0x3f0892d6	0.53349054
55	0xbe323af8	-0.17405307
56	0x3e8f05e7	0.2793419
57	0x3e79eafd	0.24406047
58	0x3dcf4633	0.10120811
59	0xbeb3d098	-0.35120082
60	0xbef413b1	-0.47671273
61	0xbe86f492	-0.26358467
62	0xbe81d678	-0.2535894
63	0x3e5c6781	0.21523859
64	0x3eb2a89f	0.34894273
65	0xbd5799e7	-0.052637007
66	0x3ea4e57c	0.32206333
67	0x3f120103	0.57032794
68	0xbde50f5e	-0.11184572
69	0x3f2dd5aa	0.6790415
70	0x3d88b361	0.06674839
71	0xbea8457b	-0.3286551
72	0x3f37577a	0.71617854
73	0xbf12c354	-0.573293
74	0xbe4d8b4d	-0.2007267
75	0x3ef2cc82	0.47421652
76	0x3eb38db0	0.35069036
77	0xbe02c10c	-0.12768954
78	0x3ee600b0	0.449224
79	0x3e2ec068	0.17065585
80	0x3e87cc49	0.26523045
81	0xbe17cbe8	-0.14823878
82	0xbd16559e	-0.036702745
83	0x3ee78777	0.4522054
84	0x3f09c354	0.5381367
85	0x3e79eb19	0.24406089
86	0x3eb9a6df	0.36260125
87	0x3eaf1dd1	0.34202436
88	0xbe8df44b	-0.27725443
89	0x3da9eb06	0.0829678
90	0xbddd916a	-0.10818751
91	0xbf1a12da	-0.60185015
92	0xbe48c5d0	-0.1960671
93	0xbedfe528	-0.4372952
94	0xbe84a86e	-0.25909752
95	0x3e8267e8	0.254699
96	0x3ece605e	0.40307897
97	0x3eddf6e4	0.43352425
98	0x3b159e2c	0.0022829873
99	0x3ef5896c	0.47956407
100	0xbe8ad4c6	-0.27115458
101	0xbeb55736	-0.354181
102	0xbd93faa7	-0.072255425
103	0xbf3228de	-0.6959361
104	0x3e1bf74c	0.15231055
105	0xbec01661	-0.37517074
106	0xbf064be9	-0.5245958
107	0xbf12e2bb	-0.57377213
108	0x3d11398f	0.035455283
109	0xbf305d6b	-0.68892545
110	0xbeb2b84b	-0.3490623
111	0x3d3b8678	0.045782536
112	0x3f02e473	0.51129836
113	0xbf2864c4	-0.65778756
114	0xbf10cafc	-0.5655973
115	0x3e26d1c4	0.16290957
116	0xbefd92e5	-0.49526134
117	0xbf13a244	-0.5766947
118	0x3f295f7c	0.6616132
119	0x3e596e21	0.21233417
120	0xbe88092f	-0.26569507
121	0x3f09c89a	0.5382172
122	0xbe8da5d8	-0.2766559
123	0x3e58055c	0.21095794
124	0x3e016c2f	0.12638925
125	0xbe0b8799	-0.13625945
126	0x3ea45e4e	0.321032
127	0xbdb427ed	-0.08796678

conv_layers.0.gate_m.bias f4 [64]
0	0xbd072564	-0.032994643
1	0xbf22283a	-0.6334263
2	0xbf305aa7	-0.68888324
3	0x3f1de5f1	0.6167899
4	0x3b99fb9e	0.0046991846
5	0xbf0e022f	-0.5547208
6	0x3e92d4d9	0.28678015
7	0xbea44f6b	-0.3209184
8	0x3ed12bbb	0.40853676
9	0xbe6a9cb3	-0.22911339
10	0xbe8d6ebc	-0.27623546
11	0x3d33b10e	0.043870024
12	0xbebea5eb	-0.3723596
13	0x3eaccc4c	0.33749616
14	0x3dd86cba	0.10567613
15	0x3f0a3706	0.5399021
16	0x3ee6731f	0.45009705
17	0x3f10f715	0.5662702
18	0x3e312fd9	0.17303409
19	0x3e8baaa6	0.27278632
20	0xbab184a5	-0.001354356
21	0xbd601622	-0.054708607
22	0xbec3ff96	-0.38280934
23	0x3d0936cc	0.033499524
24	0x3f261f36	0.64891374
25	0x3e9edfe2	0.31030184
26	0x3f03758e	0.5135125
27	0xbeacf548	-0.33780885
28	0x3eec917a	0.4620474
29	0xbf0c72fe	-0.54862964
30	0xbf010ae4	-0.5040724
31	0x3daa8362	0.083258405
32	0x3cd6cdc6	0.026221167
33	0x3f2feee8	0.68723917
34	0x3f19d7a8	0.6009469
35	0x3e3bd721	0.18343784
36	0xbeffffc2	-0.49999815
37	0xbeda1535	-0.42594305
38	0xbe9e2f06	-0.3089525
39	0xbf25e7e6	-0.64806974
40	0x3eeda460	0.4641447
41	0x3f22cab5	0.63590556
42	0x3efa49dc	0.48884475
43	0x3e8dc670	0.27690458
44	0x3ed147d5	0.40875116
45	0xbdadd125	-0.08487157
46	0x3e796997	0.24356686
47	0x3f05cd5d	0.52266484
48	0x3e855cb1	0.2604728
49	0x3f296641	0.6617165
50	0xbe84e6bd	-0.2595729
51	0x3e9e0f5f	0.30871102
52	0x3f2fc83d	0.68664914
53	0xbe122a37	-0.14273916
54	0xbf094f92	-0.5363704
55	0x3ea03eed	0.3129801
56	0x3da0a0e4	0.078431875
57	0xbed08058	-0.4072292
58	0xbd86b3f2	-0.065772906
59	0x3ed087c8	0.40728593
60	0xbf00fd89	-0.50386864
61	0x3e941d86	0.28928775
62	0x3f243757	0.6414694
63	0x3ee54804	0.44781506

conv_layers.0.merger_layer.weight f4 [30, 32]
0	0x3e0a9fbb	0.13537495
1	0xbe27eb2c	-0.16398305
2	0x3a379cff	0.000700429
3	0x3d76f4c4	0.06029202
4	0x3d364d47	0.04450729
5	0x3dca3b4f	0.098745935
6	0xbcac6ba0	-0.021047413
7	0x3e07e629	0.13271393
8	0xbe26f613	-0.16304807
9	0x3daf5bb7	0.08562415
10	0x3e3779e2	0.17917588
11	0x3dc8beff	0.098020546
12	0xbe15f355	-0.14643605
13	0x3dc9a236	0.098453924
14	0xbd98e130	-0.07464826
15	0x3daf0a04	0.08546832
16	0x3e10a48d	0.14125271
17	0x3da9cc83	0.08290961
18	0x3de496e3	0.11161592
19	0xbdfd6d10	-0.12374318
20	0xbe27dca0	-0.16392756
21	0x3d15fde9	0.0366191
22	0x3de6057a	0.11231513
23	0x3d89b79f	0.06724476
24	0x3e25c4ad	0.16188307
25	0x3e0e1329	0.13874497
26	0x3e077db3	0.13231544
27	0xbe253a04	-0.16135412
28	0x3c28d696	0.0103050675
29	0xbb959ec0	-0.0045660436
30	0x3d43cc7f	0.047802445
31	0x3e21a485	0.15785415
32	0xba5a918f	-0.000833773
33	0xbdd281cb	-0.10278662
34	0x3e113462	0.14180139
35	0xbbed413d	-0.007240443
36	0x3c1f373a	0.009717757
37	0xbe28a4d0	-0.16469121
38	0x3dcc6f77	0.09982198
39	0x3d1e3885	0.03862812
40	0x3da64b12	0.08119787
41	0xbe281ad6	-0.16416487
42	0x3da12d53	0.07869973
43	0xbe3045b0	-0.17214084
44	0x3dfc9574	0.123331934
45	0x3d8d0b87	0.06886964
46	0x3e1804b9	0.14845552
47	0xbdd93141	-0.106050976
48	0x3e312483	0.17299084
49	0xbdb0ad35	-0.086267866
50	0xbd149556	-0.03627523
51	0xbb22c57e	-0.0024836953
52	0xbdd8dd8f	-0.10589134
53	0x3e3c26a6	0.18374118
54	0xbdd78485	-0.10523323
55	0xbd42aafc	-0.047526345
56	0x3e1e778c	0.15475291
57	0xbe00ba2d	-0.1257102
58	0x3d92b50f	0.071634404
59	0x3d103193	0.035203528
60	0xbe1b67e5	-0.15176351
61	0x3db0bec8	0.08630139
62	0xbdda4eec	-0.106595844
63	0x3de5310b	0.11190995
64	0x3e03a00d	0.12854023
65	0x3e0c9670	0.13729262
66	0x3e0b7393	0.13618307
67	0x3d689c1b	0.0567895
68	0xbe2f2ca9	-0.1710688
69	0xbd8ed79c	-0.06974718
70	0xbe154ae9	-0.14579357
71	0xbddebc3b	-0.10875746
72	0xbc2f8461	-0.010712714
73	0x3c9744c4	0.018465407
74	0x3d22fd66	0.03979244
75	0x3de29cb8	0.11065048
76	0xbc402896	-0.011728426
77	0xbdef9ed7	-0.11700218
78	0xbe217e11	-0.15770747
79	0xbcc35cba	-0.023847926
80	0xbe1ff1e6	-0.1561962
81	0x3da9c44d	0.082893945
82	0xbe1e55e6	-0.15462455
83	0x3e1063aa	0.14100519
84	0x3e2c650e	0.16835424
85	0x3db4ba3b	0.08824583
86	0x3e208a23	0.15677695
87	0xbe302cf5	-0.1720465
88	0xbe2655e9	-0.1624371
89	0xbd4abad7	-0.04949459
90	0xbd5d8e47	-0.054090764
91	0xbdd471c9	-0.10373265
92	0x3def1e83	0.116757415
93	0x3e0ece8c	0.13945979
94	0xbd59d4b2	-0.053181358
95	0xbd95a683	-0.0730715
96	0x3ddbddce	0.10735665
97	0x3d997b6d	0.07494245
98	0x3d430fd9	0.047622535
99	0x3e13f84d	0.14450188
100	0x3e061086	0.1309224
101	0x39cc712c	0.00038994232
102	0xbde17bf8	-0.11009973
103	0x3dba8dd7	0.09109085
104	0xbd6963de	-0.056980006
105	0x3e04c1d4	0.12964565
106	0xbe18cff4	-0.14923078
107	0xbdaa680a	-0.08320625
108	0xbe15cd16	-0.14629015
109	0xbe246c73	-0.16056995
110	0x3d5cc912	0.053902693
111	0xbc80b8f5	-0.015713194
112	0xbd9caefd	-0.07650564
113	0xbd823f57	-0.06359737
114	0x3d950b5c	0.07277557
115	0x3db195de	0.08671163
116	0xba84e524	-0.001013909
117	0x3c78e81b	0.015192057
118	0x3e121ea4	0.14269501
119	0x3e1b3e1b	0.1516041
120	0x3c52061c	0.012818839
121	0xbdac6c7f	-0.084191315
122	0xbdffc7cc	-0.1248928
123	0xbe37f578	-0.17964733
124	0x3d82eeaf	0.063931815
125	0xbd388e5c	-0.04505764
126	0xbd607f61	-0.054808978
127	0xbe0b7b88	-0.13621342
128	0xbdb0b7c5	-0.08628801
129	0x3dddf71d	0.10838149
130	0x3da9c52e	0.08289562
131	0xbdda0be2	-0.10646798
132	0xbd09c288	-0.033632785
133	0x3e32f98a	0.17478004
134	0xbc9b26c2	-0.01893938
135	0x3dba9fd1	0.09112514
136	0x3e19a770	0.15005279
137	0xbd3bc963	-0.045846354
138	0xbd2ef266	-0.042711638
139	0xbe25fad0	-0.16208959
140	0xbd830f94	-0.06399456
141	0x3d194387	0.037417915
142	0x3d0bc9bc	0.034127936
143	0xbe31dd4d	-0.17369576
144	0xbd83c352	-0.06433739
145	0x3e00855a	0.1255087
146	0xbb5614ce	-0.003266621
147	0x3c247e89	0.010039934
148	0xbb8d1b58	-0.004306238
149	0xbcaf9431	-0.021432968
150	0x3d9af6f9	0.075666375
151	0x3d70bad3	0.05877192
152	0x3d66f107	0.056382205
153	0xbde8a6a1	-0.11359907
154	0x3cb27238	0.02178298
155	0xbcb48ee1	-0.022040786
156	0x3e16d227	0.14728604
157	0xbcf7c449	-0.030244963
158	0xbd890deb	-0.06692108
159	0x3d3c858d	0.0460258
160	0xbd05b0a6	-0.03263917
161	0xbe286ca2	-0.1644769
162	0x3d89fc95	0.06737629
163	0x3cc49aa1	0.023999514
164	0x3d32bc27	0.043636467
165	0xbd4011ed	-0.046892095
166	0xbe0cc71d	-0.1374783
167	0xbb0a66b3	-0.0021118342
168	0xbda19418	-0.07889575
169	0xbe024093	-0.12719946
170	0x3cb5f056	0.022209328
171	0x3dab6e0c	0.08370599
172	0xbdb62ac6	-0.08894877
173	0x3e026908	0.12735379
174	0x3e1367e4	0.143951
175	0xbe2614e3	-0.16218905
176	0xbe1c31fb	-0.15253441
177	0x3d4bb966	0.049737357
178	0x3da8b028	0.08236724
179	0xbe0adcdd	-0.13560815
180	0x3e1f3c5e	0.15550372
181	0xbd9cf4c4	-0.07663873
182	0x3df3a7f2	0.118972674
183	0x3dcea391	0.100897916
184	0xbda86cff	-0.08223914
185	0x3e04e909	0.12979521
186	0x3d0e684c	0.034767434
187	0xbe1fd143	-0.15607171
188	0x3cc51d35	0.024061779
189	0x3e174081	0.147707
190	0xbe13edb0	-0.1444614
191	0xbdcb897b	-0.09938332
192	0x3ca903ef	0.020631758
193	0x3dc810f9	0.09768862
194	0xbd352cc3	-0.04423214
195	0x3cb2dda0	0.021834195
196	0xbd97a1fa	-0.074039415
197	0x3e0b1542	0.13582328
198	0xbddfe66f	-0.109326236
199	0x3db69611	0.08915342
200	0x3d168b1e	0.036753766
201	0xbc29ad89	-0.010356315
202	0x3e21a57e	0.15785787
203	0x3dad2a4d	0.08455334
204	0x3e1e4fba	0.15460101
205	0x3ce40505	0.027834425
206	0x3cc08ffd	0.023506159
207	0x3dc55cee	0.096368656
208	0xbcae947c	-0.021311037
209	0xbe31a542	-0.17348197
210	0x3ddd41ed	0.1080359
211	0x3e2afda7	0.16698323
212	0x3e2e6ecd	0.17034455
213	0x3e00a935	0.12564547
214	0x3da341f8	0.07971567
215	0xbe128f19	-0.143124
216	0x3cd0b601	0.025477411
217	0x3e0db1d2	0.13837364
218	0x3b7be9cb	0.0038438912
219	0xba7b2138	-0.000957984
220	0xbe10a3b2	-0.14124945
221	0x3d6022be	0.054720633
222	0xbe312e12	-0.1730273
223	0xbd959dec	-0.07305512
224	0xbe11061d	-0.14162488
225	0x3e134d9f	0.14385079
226	0xbdb23e32	-0.08703269
227	0x3e23610e	0.15954992
228	0xbaa06c11	-0.0012239238
229	0x3ddb16c2	0.106977
230	0x3d94599f	0.07243656
231	0xbe24b7dc	-0.16085762
232	0x3d4cc5ed	0.049993444
233	0x3de8906e	0.11355673
234	0x3e23caca	0.15995327
235	0x3d8851f2	0.06656255
236	0x3ccb412c	0.02481135
237	0x3dc830a2	0.09774901
238	0x3dcaf2a3	0.099095605
239	0xbe2ee952	-0.17081192
240	0xbc96d249	-0.018410819
241	0xbc398d6d	-0.011325222
242	0x3d28e4f0	0.041233957
243	0xbe1c8592	-0.15285328
244	0x3c4985db	0.01229998
245	0xbdd57568	-0.10422784
246	0x3d465caf	0.048428234
247	0x3e1071d7	0.14105926
248	0xbd630352	-0.05542309
249	0x3c66d24d	0.014088226
250	0x3db8fe9a	0.090329364
251	0x3dee631b	0.116399966
252	0xbdff9fcf	-0.12481653
253	0xbe3401a2	-0.17578748
254	0x3e1191b2	0.14215735
255	0xbde0acf8	-0.10970491

conv_layers.0.merger_layer.bias f4 [30]
0	0x3df8fd5d	0.121577
1	0xbd446919	-0.04795179
2	0xbe228830	-0.15872264
3	0x3dc9aa8a	0.09846981
4	0xbe11442b	-0.1418616
5	0x3da628d4	0.08113256
6	0x3dd73ff2	0.105102435
7	0x3e0484a3	0.12941222
8	0x3e05cdaf	0.13066743
9	0x3d0ade15	0.0339032
10	0x3cb4f241	0.022088172
11	0xbddb3623	-0.10703685
12	0xbcc4aa86	-0.024007093
13	0x3ce8a05b	0.028396776
14	0xbc136e71	-0.008998499
15	0x3de2bcbf	0.11071157
16	0xbdb67d57	-0.089106254
17	0xbe12a1c9	-0.14319529
18	0x3e00ed64	0.12590557
19	0x3db8f97f	0.090319626
20	0x3d7f3d02	0.06231404
21	0xbe243596	-0.16036066
22	0x3dd95a5e	0.10612939
23	0x3ddbccad	0.10732398
24	0xbe176853	-0.1478589
25	0x3e1d8a2f	0.15384744
26	0xbe2f4134	-0.17114717
27	0x3d3de903	0.046364795
28	0xbd84b7bd	-0.06480358
29	0x3df848cc	0.1212326
